model.onnx (onnx, 137664 bytes, 12 tensors)

conv1.weight f4 [8, 2, 3, 3]
0	0x3e566128	0.209355
1	0x3e1c2219	0.15247382
2	0x3ea84be9	0.32870415
3	0xbd7ea5ae	-0.062169723
4	0xbe8dff0f	-0.27733657
5	0xbf0c6524	-0.5484183
6	0x3cd62528	0.026140764
7	0xbc48e740	-0.012262166
8	0xbd6cb417	-0.057788935
9	0xbe07746c	-0.13228005
10	0xbe2e6dc2	-0.17034057
11	0x3de0b935	0.109728254
12	0x3e1f4a30	0.15555644
13	0xbc35d36a	-0.011097768
14	0x3e7815e3	0.24227099
15	0xbc8228c6	-0.015888583
16	0xbb52278a	-0.0032067024
17	0x3e305309	0.17219175
18	0xbf91fce9	-1.1405307
19	0xbc550878	-0.013002507
20	0xbe003478	-0.12520015
21	0xbcc521c2	-0.024063949
22	0x3e95a20c	0.29225194
23	0xbda2df66	-0.07952766
24	0x3cdcdaa5	0.026959727
25	0xbdadbe53	-0.08483567
26	0x3efbc34e	0.49172443
27	0x3e7d92bd	0.24763007
28	0x3d94f555	0.07273356
29	0x3d27a15d	0.040925372
30	0x3d53a8cf	0.05167466
31	0xbe2e2823	-0.17007498
32	0x3dfdd2b2	0.123937026
33	0xbc227029	-0.009914436
34	0xbc22184d	-0.009893489
35	0xbdcf9146	-0.101351306
36	0x3d4b8416	0.049686514
37	0xbf6c0bda	-0.92205584
38	0x3d8e60bb	0.069520436
39	0xbd025d19	-0.031827066
40	0x3ed3580d	0.41278115
41	0x3e038968	0.12845385
42	0x3dad910d	0.08474932
43	0x3ee2ac59	0.44272116
44	0xbce82bc3	-0.02834118
45	0xb9eb2f53	-0.00044857952
46	0x3e4f6b88	0.20255864
47	0xbbe84d22	-0.007089273
48	0x3d1fc89d	0.03900968
49	0xbe3d0a9d	-0.1846108
50	0xbd70846d	-0.05872004
51	0x3c55d3c1	0.013050974
52	0xbd9fc26d	-0.07800756
53	0x3d18054c	0.037114426
54	0xbe038c8d	-0.12846585
55	0x3d917ba6	0.07103662
56	0xbe21ac79	-0.1578845
57	0x3e59dfce	0.21276781
58	0xbe47a797	-0.19497524
59	0xbea7eead	-0.32799283
60	0xbdcd631a	-0.10028668
61	0xbd608d51	-0.05482227
62	0x3ddfeb90	0.10933602
63	0x3d989eff	0.07452201
64	0x3d8102dd	0.06299374
65	0x3e3f7657	0.18697487
66	0xbe92599d	-0.28583995
67	0x3eccfea2	0.4003802
68	0xbddd3d48	-0.10802704
69	0x3e64156e	0.222738
70	0x3e5cd44c	0.2156536
71	0xbe7779dc	-0.2416758
72	0xbdf159cc	-0.117847055
73	0x3ea71743	0.32634935
74	0xbcc9bf82	-0.02462745
75	0x3ea19017	0.31555244
76	0x3edd7d2a	0.43259555
77	0x3ec8ef3c	0.3924502
78	0xbde36c36	-0.11104624
79	0x3f00969b	0.50229806
80	0xbe3a43e3	-0.18189959
81	0x3dc5a53c	0.096506566
82	0xbe31b70b	-0.17354982
83	0x3daf5ac0	0.08562231
84	0xbd91399c	-0.07091066
85	0xbeaca81f	-0.33722016
86	0xbdda1a85	-0.106495894
87	0x3d2fe717	0.042944994
88	0xbe0791cc	-0.13239211
89	0x3d36a4f6	0.044590913
90	0x3dc35aa1	0.095387705
91	0x3d429d3f	0.047513243
92	0x3caa44e8	0.02078481
93	0xbd39bfa3	-0.045348775
94	0x3e686085	0.2269307
95	0x3d763ac0	0.060114622
96	0xbf8720fb	-1.055694
97	0x3eaf0803	0.341858
98	0x3edc0152	0.42969757
99	0x3a6e7175	0.0009095886
100	0x3bb77045	0.0055981004
101	0xbcebdd82	-0.028792147
102	0x3daf6105	0.08563427
103	0xbd56d48a	-0.052448787
104	0x3d6e9cee	0.05825513
105	0x3e20968a	0.15682426
106	0xbbdd35e6	-0.00675081
107	0xbe219b7e	-0.15781972
108	0x3eb9eb76	0.36312455
109	0xbf174a96	-0.59098184
110	0xbdb2eb56	-0.08736293
111	0x3ebff58a	0.3749202
112	0x3d7cd152	0.06172306
113	0xbd13746f	-0.03599971
114	0xbe221e9c	-0.15831989
115	0x3d6a16b8	0.057150573
116	0x3db5d4ad	0.08878455
117	0xbe48cfa3	-0.19610457
118	0x3e8caee5	0.27477184
119	0xbd8ddfbc	-0.069274396
120	0xbe0c58a0	-0.13705683
121	0xbc6c093b	-0.014406498
122	0x3e32833e	0.17432877
123	0xbd8975f9	-0.067119546
124	0x3d42fa5b	0.04760204
125	0xbd8a2293	-0.06744876
126	0xbd7ea2b1	-0.062166873
127	0xbdcfbd77	-0.101435594
128	0xbf517662	-0.8182126
129	0x3da109c9	0.078631945
130	0x3ed4e629	0.41581848
131	0x3e19d41e	0.15022323
132	0x3ea0e56a	0.3142503
133	0xbc3ba140	-0.011452019
134	0x3cbe8541	0.0232569
135	0x3d2cd9c5	0.04219987
136	0x3dceaeb2	0.10091914
137	0x3ebda38e	0.37038845
138	0xbcc4417d	-0.023957008
139	0xbea765f2	-0.32694966
140	0xbc989f4c	-0.018630646
141	0xbd9ec113	-0.0775167
142	0x3d9df824	0.07713345
143	0xbc1bca6e	-0.009508712

conv1.bias f4 [8]
0	0xb9f4a234	-0.00046660157
1	0x3d315d3e	0.043301813
2	0x3ad003bb	0.0015870252
3	0xbbe1c1a0	-0.006889537
4	0xbe041c4d	-0.12901421
5	0xbbcf7540	-0.006331116
6	0xbd392840	-0.0452044
7	0xbca404b2	-0.02002177

conv2.weight f4 [8, 8, 3, 3]
0	0x3ccaec48	0.02477087
1	0x3cd44ac8	0.025914565
2	0xbd08c354	-0.033389404
3	0xbd868776	-0.06568806
4	0x3f35a19d	0.7094973
5	0xbcb1b06c	-0.02169057
6	0xbd6b83c1	-0.057498697
7	0x3e0cb665	0.13741453
8	0x3d86aa87	0.06575494
9	0xbd13535e	-0.035968177
10	0xbd823327	-0.06357413
11	0xbd8fa103	-0.070131324
12	0x3bef7502	0.0073076496
13	0x3eb10a3a	0.34578115
14	0xbc1f1055	-0.009708484
15	0x3927ea0b	0.00016013549
16	0x3db31768	0.08744699
17	0xb9aeb211	-0.00033320536
18	0x3e2ca1e8	0.16858637
19	0x3d91b2ff	0.07114219
20	0x3d76e1f6	0.060274087
21	0x3e93d128	0.2887051
22	0x3ef52176	0.4787709
23	0xbe169255	-0.14704259
24	0x3e29e32e	0.16590568
25	0x3e0490b9	0.12945832
26	0xbdc8f72a	-0.09812768
27	0x3d2c866a	0.042120375
28	0x3da1b11c	0.07895109
29	0x3aac74fa	0.001315742
30	0x3d238cb5	0.03992911
31	0x3f6db5fc	0.9285581
32	0x3da2ea63	0.07954862
33	0xbb04de61	-0.002027415
34	0x3dd53d9e	0.10412143
35	0x3d999005	0.07498173
36	0x3a8345d1	0.0010015314
37	0xbda3fb94	-0.08006969
38	0xbb723e8f	-0.0036963557
39	0xbde75dc5	-0.11297182
40	0x3e41e129	0.18933548
41	0x3c8c3248	0.01711382
42	0xbdd09994	-0.10185543
43	0xbe61b091	-0.22040011
44	0xbd636d2c	-0.055524036
45	0xbb425400	-0.0029652119
46	0x3d73e278	0.05954215
47	0x3d49f061	0.04930151
48	0x3e1a73ad	0.1508319
49	0x3ea10278	0.31447196
50	0x3de115c3	0.10990479
51	0xbc4b629d	-0.012413648
52	0x3d0d7b12	0.034541197
53	0xbc30cceb	-0.010791044
54	0xbcd6588f	-0.026165275
55	0xbc9b41ca	-0.01895227
56	0xbd19df83	-0.037566673
57	0xbd6551b0	-0.055986106
58	0x3e115ea9	0.14196266
59	0x3d88b34d	0.06674824
60	0x3d9bebc9	0.07613332
61	0x3d5250c4	0.051346555
62	0xbdb3a2dc	-0.08771297
63	0x3c443459	0.011975371
64	0x3ce5342f	0.027978985
65	0x3ad30e3a	0.0016102262
66	0xbc1b41cf	-0.009476139
67	0x3e17a55d	0.14809175
68	0x3cef5384	0.029214628
69	0xbdc2d5a3	-0.09513404
70	0xbe08731a	-0.13325158
71	0xbca06406	-0.019578945
72	0x3dc55d43	0.09636929
73	0x3dea9475	0.11454097
74	0x3e5222ab	0.20521037
75	0xbde5feee	-0.112302646
76	0xbda6f589	-0.08152301
77	0xbdefa249	-0.11700875
78	0xbd6eea66	-0.05832901
79	0xbd7ed31e	-0.062213056
80	0xbc736ba4	-0.0148572065
81	0x3e9501cb	0.2910293
82	0xbe4f332a	-0.20234361
83	0xbc4c66ab	-0.01247565
84	0x3e1d8c1e	0.15385482
85	0xbe2c16f9	-0.16805638
86	0x3e09499a	0.13406983
87	0xbb62f35c	-0.0034629917
88	0x3ebc56ef	0.36785075
89	0xbe36ec68	-0.1786362
90	0xbea350a0	-0.3189745
91	0xbe753c25	-0.23948725
92	0x3eb39c43	0.35080156
93	0xbd48b1f3	-0.04899783
94	0xbe0877e6	-0.13326988
95	0xbd425bc3	-0.047450792
96	0x3d8a43a4	0.06751183
97	0xbd8601a4	-0.06543282
98	0x3dae4e43	0.08511021
99	0xbdc2f497	-0.09519308
100	0x3e456a0e	0.19278738
101	0xbe6a9fc8	-0.22912514
102	0xbe84c2e2	-0.25929934
103	0x3e7e7480	0.24849129
104	0x3d598dc8	0.05311373
105	0xbc10d87b	-0.0088406755
106	0x3e9472ef	0.28993937
107	0x3ea8a5b0	0.3293891
108	0x3e23932a	0.15974107
109	0x3c825c81	0.01591325
110	0x3e97ad86	0.29624575
111	0x3e892326	0.2678463
112	0x3e92dbb9	0.2868326
113	0x3d2de853	0.04245789
114	0x3e9af753	0.30266818
115	0x3e3ece09	0.18633284
116	0xbee11b2a	-0.43966037
117	0xbe5a5b02	-0.21323779
118	0x3d70c4bc	0.05878137
119	0x3e2098be	0.15683267
120	0x3e3f586f	0.18686078
121	0x3e9a26dd	0.30107775
122	0x3eae53eb	0.340484
123	0x3d88099b	0.06642457
124	0xbe2585c6	-0.16164312
125	0xbce2bc23	-0.027677601
126	0xbe7d305d	-0.2472548
127	0xbbda9b18	-0.0066713206
128	0xbce3aaeb	-0.027791461
129	0x3ec5ff1a	0.3867119
130	0xbe3944ff	-0.18092726
131	0x3e7a096c	0.24417657
132	0xbe175c3d	-0.1478128
133	0x3d63feae	0.055662803
134	0xbb4e7028	-0.0031499956
135	0x3d816505	0.06318096
136	0xbd48fd3d	-0.04906963
137	0xbe19c98a	-0.15018287
138	0xbbe642d5	-0.00702701
139	0xbd196da2	-0.03745807
140	0xbd763c69	-0.060116205
141	0x3e8b505b	0.27209744
142	0xbb909b00	-0.0044130087
143	0xbd940746	-0.0722795
144	0x3e184147	0.14868651
145	0x3e12ee90	0.14348817
146	0xbcd02ebd	-0.025412912
147	0xbdb41e99	-0.087948985
148	0xbdb36017	-0.08758562
149	0xbe424171	-0.18970276
150	0x3d28f663	0.041250598
151	0xbeaa1204	-0.3321687
152	0xbe6108be	-0.21975991
153	0xbf840ca9	-1.0316364
154	0xbddf0b31	-0.108908065
155	0x3c660ba0	0.014040858
156	0x3b5a8fe4	0.0033349926
157	0xbf51e0ac	-0.8198345
158	0xbe01d2b4	-0.12678033
159	0x3da438a4	0.08018616
160	0xbe127b8c	-0.14304942
161	0x3e4ede85	0.20202072
162	0x3d872b6b	0.06600078
163	0xbe4f4705	-0.20241936
164	0xbe39ea4b	-0.18155782
165	0x3c0fe127	0.008781708
166	0xbdb979a5	-0.09056405
167	0x3dbf6ee9	0.09347326
168	0x3dd41f3b	0.10357519
169	0xbdf1c555	-0.11805216
170	0x3a41a6fd	0.0007387249
171	0xbdd0c84c	-0.101944536
172	0x3d9da64e	0.07697736
173	0xbdb2356b	-0.08701595
174	0x3cfce70d	0.030871892
175	0xbe4a44d2	-0.19752815
176	0x3e0bb500	0.13643265
177	0x3b500db3	0.0031746447
178	0xbe987775	-0.29778638
179	0xbc8f9038	-0.017524824
180	0xbe51475b	-0.20437376
181	0x3eb1f702	0.34758765
182	0xbca742c0	-0.020417571
183	0x3e51f68b	0.20504205
184	0x3eb24481	0.3481789
185	0x3e8c01b3	0.27345046
186	0xbccc4c62	-0.024938766
187	0x3eddde34	0.4333359
188	0xbe400116	-0.18750414
189	0x3deab87c	0.11460969
190	0x3df5046c	0.11963734
191	0xbf1c9ad0	-0.61173725
192	0xbd1df52f	-0.038563903
193	0x3e485404	0.195633
194	0x3df1039d	0.11768267
195	0xbc1077ac	-0.0088175945
196	0x3d5d4389	0.054019485
197	0x3f12ccf2	0.5734397
198	0x3eaeb312	0.34120995
199	0x3ef26ddc	0.4734944
200	0x3d47755f	0.04869592
201	0xbce1a64a	-0.027545113
202	0x3e5e710a	0.21722808
203	0x3c0ddbd3	0.008658367
204	0x3db6d79d	0.08927844
205	0xbeb3cf80	-0.35119247
206	0x3d8cd449	0.06876428
207	0xbd6af913	-0.057366442
208	0x3d1f677b	0.038917046
209	0x3cb1a386	0.02168442
210	0xbe2ba995	-0.16763909
211	0x3c6d607d	0.014488337
212	0xbe26c59a	-0.16286317
213	0xbebf36af	-0.37346408
214	0xbd5618d5	-0.052269775
215	0x3e5caaa6	0.21549472
216	0xbd25b246	-0.040453218
217	0xbeb2dd9a	-0.34934694
218	0x3ea8ef4b	0.32995066
219	0xbe1f8013	-0.155762
220	0xbcc9500a	-0.024574298
221	0xbce234f2	-0.027613137
222	0xbe18af80	-0.14910698
223	0xbcf2d6aa	-0.029643375
224	0x3e27db83	0.16392331
225	0x3e4f59b2	0.2024906
226	0xbe0ad494	-0.13557655
227	0x3dc994d2	0.09842838
228	0xbe0dd1a2	-0.138495
229	0xbd122bb3	-0.035686206
230	0x3c5b3ef4	0.013381708
231	0x3e0f7fc8	0.14013588
232	0xbd833670	-0.064068675
233	0x3e22c4fa	0.15895453
234	0xbdbb5684	-0.09147361
235	0xbe06f4b8	-0.1317929
236	0x3e1a92b1	0.15095021
237	0x3e3ee596	0.18642268
238	0xbd10b8ed	-0.03533261
239	0xbe7dc684	-0.24782759
240	0x3e107f9b	0.14111178
241	0xbe051a09	-0.12998213
242	0xbde285b9	-0.11060662
243	0x3ece5549	0.40299442
244	0xbe6dde47	-0.23229323
245	0xbe73821c	-0.23780102
246	0xbc56b0fc	-0.01310372
247	0xbd3b1cc9	-0.04568175
248	0x3e8d92af	0.27650973
249	0xbeca3930	-0.39496756
250	0xbc638c9c	-0.013888504
251	0xbda2470c	-0.07923707
252	0xbe59ed2a	-0.21281877
253	0x3ec65a90	0.3874097
254	0x3e943b28	0.28951383
255	0x3ea318d4	0.3185488

conv2.bias f4 [8]
0	0xbdadd7f2	-0.08488454
1	0xbe8714c1	-0.2638302
2	0xbed1af43	-0.40954027
3	0xbd33a926	-0.043862484
4	0x3d545c67	0.051845934
5	0xbe292b79	-0.1652049
6	0x3e8606d9	0.261771
7	0x3d6a0623	0.05713476

conv3.weight f4 [8, 8, 3, 3]
0	0xbcb0b876	-0.021572333
1	0x3d186c97	0.037212934
2	0x3db1385d	0.086533286
3	0xbc17088d	-0.009218347
4	0xbc85ca52	-0.016331825
5	0x3dcd045f	0.10010599
6	0xbcdc09a9	-0.026860075
7	0xbe506d89	-0.20354284
8	0xbe3f6326	-0.18690166
9	0xbb4a2f55	-0.0030850966
10	0xbdfff470	-0.12497795
11	0xbdd62cb2	-0.10457744
12	0x3d2f286f	0.04276317
13	0xbdd5ec9f	-0.104455225
14	0xbd88f534	-0.06687394
15	0x3df4c882	0.11952306
16	0xbd4b0544	-0.04956557
17	0x3df04b93	0.11733165
18	0x3f080a64	0.53140855
19	0xbe4bbb41	-0.1989565
20	0xbe30cb6f	-0.17265104
21	0xbd1dd7e1	-0.038535956
22	0x3ea91b97	0.33028862
23	0xbdb2f0e6	-0.08737354
24	0xbe455c59	-0.19273509
25	0xbea59279	-0.32338312
26	0x3f3dfe0d	0.74215776
27	0xbd0c6763	-0.034278285
28	0xbe147396	-0.14497218
29	0xbd500a65	-0.050791163
30	0xbde81ad9	-0.11333246
31	0xbe5f63a3	-0.21815352
32	0xbdacf771	-0.08445633
33	0xbe06a9ff	-0.13150786
34	0xbbb222b3	-0.0054362654
35	0x3e009fe3	0.12560992
36	0x3db8d06e	0.0902413
37	0x3d88a4a3	0.06672027
38	0xbc71c7fa	-0.014757151
39	0xbc31ce9e	-0.010852484
40	0x3da770f3	0.0817584
41	0x3e4a5be1	0.19761612
42	0xbe1f6690	-0.15566468
43	0x3e9d5aaa	0.30733234
44	0x3e212936	0.15738377
45	0x3d54b8a1	0.05193389
46	0xbda9b948	-0.08287293
47	0xbe0cc756	-0.13747916
48	0x3e02c121	0.12768985
49	0xbd256ccc	-0.04038696
50	0x3d150a7c	0.03638695
51	0x3e81844d	0.2529625
52	0x3d6e535d	0.05818497
53	0x3d9f9f2a	0.0779403
54	0x3db42e7a	0.08797927
55	0x3ce00a0a	0.027348537
56	0xbd8da2ad	-0.069157936
57	0x3e10502c	0.14093083
58	0xbd890726	-0.066908166
59	0xbdd4da59	-0.10393209
60	0x3e4b8b46	0.19877347
61	0x3d7dd6ae	0.061972313
62	0x3dcf1203	0.10110857
63	0xbd05c03a	-0.032654025
64	0xbdd04fd7	-0.10171478
65	0xbdca017f	-0.098635666
66	0x3e0c15ea	0.13680235
67	0x3b7b800c	0.0038375882
68	0x3c1201c8	0.0089115575
69	0x3d52d697	0.05147418
70	0xbd4b19c5	-0.049585123
71	0xbd4e78fe	-0.050408356
72	0x3c1b31f7	0.009472362
73	0x3dbc6efc	0.09200856
74	0xbc3602ba	-0.0111090485
75	0xbd855577	-0.06510442
76	0x3c8ed851	0.017437132
77	0xbe113bc8	-0.14182961
78	0x3d8af5b8	0.067851484
79	0xbce1a801	-0.02754593
80	0xbc14cdd3	-0.009082275
81	0x3b701250	0.003663201
82	0x3d14f4a2	0.036366113
83	0x3e090e95	0.13384469
84	0x3d551615	0.052023012
85	0xbd89a7b2	-0.067214385
86	0xbd08a7d8	-0.033363193
87	0xbda80ce8	-0.08205587
88	0x3e135853	0.14389162
89	0xbe0b8a52	-0.13626984
90	0xbe6edff8	-0.23327625
91	0xbebed3e0	-0.37271023
92	0xbda79186	-0.08182053
93	0x3d9d2299	0.076726146
94	0x3d735b21	0.05941308
95	0x3d4c16f1	0.049826566
96	0xbda1beab	-0.07897695
97	0x3d92c024	0.07165554
98	0xbf030e87	-0.5119404
99	0xbd215ca6	-0.039394997
100	0x3b35651f	0.002767868
101	0x3dcb3427	0.09922057
102	0xbc837243	-0.016045695
103	0x3e116966	0.14200363
104	0xbdcfc615	-0.10145203
105	0xbdf41ec8	-0.119199336
106	0x3dce5b73	0.10076036
107	0x3ea05a28	0.31318784
108	0xbde4db8f	-0.1117469
109	0xbbf43d6c	-0.007453611
110	0xbe65d4e6	-0.22444496
111	0xbd94dfd4	-0.07269254
112	0xbd830d35	-0.063990034
113	0x3e4dca53	0.20096712
114	0x3de118b7	0.10991042
115	0x3e2423a1	0.16029216
116	0x3e21f642	0.15816596
117	0xbdf7c531	-0.12098158
118	0x3e1513fb	0.14558403
119	0xbd9305fd	-0.071788765
120	0x3be308c4	0.006928535
121	0x3dce87d2	0.100844994
122	0x3d6dd69b	0.05806599
123	0xbd9384ca	-0.07203062
124	0x3e65a4c8	0.2242614
125	0x3e5dfd9d	0.21678777
126	0xbe099fdc	-0.13439888
127	0x3d96ee4c	0.0736967
128	0x3b3e8841	0.0029072913
129	0xbd09d0bd	-0.033646334
130	0x3d75449e	0.05987989
131	0x3dab87e3	0.08375528
132	0xbe36179a	-0.17782441
133	0x3e031777	0.1280192
134	0x3d7024c5	0.058628816
135	0x3dbeed93	0.093226574
136	0x3dfb4057	0.12268131
137	0xbd912e6e	-0.07088934
138	0xbcb322c6	-0.021867167
139	0x3cb83abb	0.022488942
140	0xbd0393f4	-0.03212352
141	0xbd888a7d	-0.066670395
142	0x3d3a42e4	0.045473948
143	0xbbdcbb12	-0.0067361677
144	0xbddc41de	-0.10754751
145	0x3e082217	0.13294254
146	0x3dd1d25a	0.102451995
147	0x3e02e0ed	0.12781115
148	0xbd2facc4	-0.04288937
149	0x3e0e5cdb	0.13902609
150	0x3e0a95ca	0.13533702
151	0xbc49f9d8	-0.012327634
152	0xbe29742e	-0.16548225
153	0xbeb60fa6	-0.35558814
154	0xbd11140a	-0.0354195
155	0x3e2e5116	0.1702312
156	0x3e386b27	0.18009625
157	0x3e0e8056	0.13916144
158	0x3d0e77b6	0.034782134
159	0x3ea047c3	0.3130475
160	0xbd2aa7ab	-0.041663807
161	0x3d812d34	0.0630745
162	0x3f428b87	0.7599415
163	0xbdc59718	-0.096479595
164	0x3c899860	0.01679629
165	0xbe93ba60	-0.2885313
166	0x3e9d9c8f	0.30783507
167	0xbe21a796	-0.15786585
168	0xbd74f915	-0.059807856
169	0xbe113d98	-0.14183652
170	0x3da1372c	0.07871851
171	0xbdc3adb0	-0.09554613
172	0xbdea1bca	-0.114310816
173	0x3f31103b	0.6916539
174	0xbabef107	-0.0014567681
175	0x3f016f70	0.50560665
176	0xbe5116f6	-0.20418915
177	0x3e8db50f	0.276772
178	0xbe4326cd	-0.1905777
179	0x3d16b951	0.036797825
180	0xbc3db9ff	-0.011579989
181	0xbe9c06c7	-0.3047392
182	0x3deb7eb5	0.11498777
183	0xbefe0fb7	-0.49621364
184	0xbe6a767c	-0.2289676
185	0x3e4ae002	0.19812015
186	0x3dba6925	0.09102086
187	0xbe4e6525	-0.20155771
188	0x3b722622	0.0036948998
189	0x3d98f882	0.07469274
190	0xbda8e12c	-0.08246073
191	0xbdbfd8aa	-0.09367497
192	0x3d5c3090	0.05375725
193	0xbbdc404e	-0.006721533
194	0xbe74ea08	-0.23917401
195	0xbd5a38c8	-0.053276807
196	0xbd1e0b00	-0.03858471
197	0xbc2586b4	-0.0101029165
198	0x3daa4442	0.083138004
199	0xbd80a5c3	-0.062816165
200	0xbe872cce	-0.2640137
201	0xbd11f7d5	-0.03563674
202	0xbe72f561	-0.23726417
203	0x3ce085e0	0.027407587
204	0xbe6fe4ff	-0.23427199
205	0xbdbcd815	-0.09220902
206	0x3e10df28	0.14147627
207	0xbd9642e8	-0.0733698
208	0xbaf0f643	-0.0018383939
209	0xbf617850	-0.8807421
210	0xbd50c4c2	-0.050968893
211	0xbe907842	-0.2821675
212	0xbd5533ec	-0.05205147
213	0xbecb8eb4	-0.3975731
214	0xbde072a1	-0.10959364
215	0xbe16563d	-0.14681335
216	0xbc31dab2	-0.010855364
217	0x3c689072	0.014194595
218	0xbdc15ea3	-0.09441879
219	0x3d0603b1	0.032718364
220	0xbcc007df	-0.023441253
221	0xbe0cfd1b	-0.13768427
222	0x3da34cb1	0.07973612
223	0xbd141ef0	-0.036162317
224	0xbe3e08a5	-0.18557985
225	0x3e579d7f	0.21056174
226	0xbdc1d793	-0.09464946
227	0x3dd0d127	0.10196143
228	0xbd4c5193	-0.049882483
229	0x3db4904e	0.088165864
230	0x3e55f9d9	0.2089609
231	0xbd918f9f	-0.07107472
232	0xbb662241	-0.0035115632
233	0x3e207d3a	0.1567277
234	0x3f2833ad	0.6570385
235	0x3ef855cf	0.48502967
236	0xbd1d9f16	-0.038481794
237	0xbd8f91ea	-0.07010253
238	0x3ee0b1fc	0.4388579
239	0x3eecb942	0.4623509
240	0xbd5bca22	-0.053659566
241	0xbe36bd19	-0.17845573
242	0x3f122279	0.5708385
243	0xbe4b8150	-0.19873548
244	0x3d658ce0	0.056042552
245	0xbdaf223e	-0.08551453
246	0xbdbf1807	-0.09330755
247	0xbd7cf8e1	-0.061760787
248	0xbd1472e4	-0.03624238
249	0xbd676e57	-0.056501713
250	0xbda9a4ad	-0.082833625
251	0x3d6300d7	0.055420723
252	0xbdcd2f2d	-0.10018764
253	0xbd6e2c12	-0.058147497
254	0xba8fcb64	-0.0010970649
255	0xbb9c530d	-0.0047706426

conv3.bias f4 [8]
0	0x3bbb83a4	0.00572248
1	0x3e938bf4	0.28817713
2	0xbeace79f	-0.33770463
3	0x3bcaef50	0.006193079
4	0x3ede4a57	0.43416092
5	0x3e89f5f8	0.26945472
6	0xbf1d2e67	-0.6139893
7	0xbf1de88f	-0.6168298

conv4.weight f4 [8, 8, 3, 3]
0	0xbd889161	-0.06668354
1	0xbbe5a0a7	-0.0070076766
2	0x3d03d01e	0.032180898
3	0xbd7ef520	-0.06224549
4	0xbd931cdc	-0.07183239
5	0xba4262d4	-0.0007415239
6	0x3d095a1b	0.033533197
7	0xbdd37a82	-0.10326101
8	0xbb763a97	-0.0037571543
9	0x3d5484f7	0.051884618
10	0xbdb75727	-0.0895217
11	0xbd97be49	-0.07409341
12	0x3b38d26e	0.0028201598
13	0xbd00e6e7	-0.031470206
14	0xbadb4de0	-0.0016731583
15	0xbda273a0	-0.0793221
16	0xbd34e75c	-0.044165954
17	0x3c363778	0.011121623
18	0x3ce45289	0.027871387
19	0xbd2dc014	-0.042419508
20	0x3b5e7d92	0.0033949357
21	0xbc54311b	-0.012951161
22	0x3d0e619e	0.034761064
23	0xbd871c27	-0.065971665
24	0xbd9596c5	-0.07304148
25	0x3d249425	0.040180344
26	0xbcf991fd	-0.03046512
27	0xbd1b5ba7	-0.037929203
28	0xbcb72e8c	-0.022361062
29	0xbda7935e	-0.08182405
30	0xbb95785a	-0.004561466
31	0xbdac6708	-0.08418089
32	0x3bd0a2b3	0.0063670515
33	0xbd3adc3c	-0.045620188
34	0x3cc11313	0.023568666
35	0xbd000aa9	-0.031260166
36	0xbcc618a5	-0.024181673
37	0x3ce220d9	0.027603554
38	0x3d872937	0.06599658
39	0x3d494935	0.04914208
40	0x3ce458cb	0.027874371
41	0xbd6564e2	-0.056004412
42	0x3d81c06e	0.06335531
43	0x3d0b2075	0.0339665
44	0xbd9889cd	-0.074481584
45	0xb93c129a	-0.00017936007
46	0x3d375182	0.044755466
47	0xbd8a113b	-0.06741568
48	0xb91ff943	-0.00015256279
49	0xbd06ca8e	-0.032908015
50	0x3c8fd5f9	0.017558085
51	0xbd15733b	-0.036486845
52	0xbdd44a66	-0.10365753
53	0xbc2390e6	-0.009983277
54	0x3d0f5702	0.034995086
55	0x3cb78f15	0.022407094
56	0xbdabdba5	-0.08391503
57	0xbd8a1dd5	-0.06743971
58	0x3d2c37cb	0.042045396
59	0xbd98074c	-0.07423267
60	0xbc946c6d	-0.018118108
61	0xbd6ddd56	-0.05807241
62	0xbd668bee	-0.05628579
63	0x3d1e3d8d	0.03863292
64	0xbc427b90	-0.01187028
65	0xbd17df37	-0.03707811
66	0x3d154739	0.036444876
67	0xbd91294d	-0.070879556
68	0x3cf99cf1	0.030470343
69	0xbca9cfd8	-0.02072899
70	0xbd890762	-0.06690861
71	0xbd89ec1c	-0.067344874
72	0xbeb93844	-0.3617574
73	0x3ec8cc5c	0.39218414
74	0xbda02399	-0.0781929
75	0xbdbe63cb	-0.09296378
76	0x37c8f0e0	2.3954024e-05
77	0x3e7cab7c	0.24674791
78	0x3ebeeb52	0.3728891
79	0xbde20d9f	-0.11037754
80	0xbc1e9c41	-0.0096808085
81	0xbe9ea6ff	-0.30986783
82	0xbed6a67c	-0.41923892
83	0x3dd9e776	0.10639851
84	0xbda2db64	-0.07952002
85	0x3e310cc8	0.17290032
86	0xbe39740a	-0.18110672
87	0x3d9341ca	0.07190283
88	0xbe02b1be	-0.12763116
89	0xbd8985fa	-0.06715007
90	0x3dde3edc	0.10851833
91	0x3f6497ad	0.8929394
92	0x3da5b19a	0.080905154
93	0xbd72dddc	-0.059293613
94	0x3f971f83	1.1806492
95	0x3f11f72b	0.57017773
96	0x3f2fb2b3	0.6863205
97	0x3eb1343a	0.34610158
98	0x3ef16b99	0.47152403
99	0x3e9f107f	0.31067273
100	0x3debcc47	0.11513572
101	0xbea87758	-0.32903552
102	0xbe4494de	-0.19197413
103	0x3ded0229	0.11572678
104	0x3cfa8796	0.03058223
105	0xbd09054c	-0.033452317
106	0xbc9ad37d	-0.018899674
107	0x3e3907f4	0.1806944
108	0x3dea95a2	0.114543214
109	0x3e1201ac	0.1425845
110	0xbdcf80f1	-0.101320155
111	0xbe4f9e20	-0.20275164
112	0x3df4a1de	0.11944936
113	0x3e38ad9e	0.1803498
114	0xbdce8612	-0.10084166
115	0x3e8afdf1	0.27146867
116	0xbe7bb8e3	-0.24582247
117	0x3e418bbf	0.18900965
118	0xbf05d64b	-0.5228011
119	0x3d08688f	0.03330284
120	0x3e0df0bf	0.13861369
121	0xbd971d38	-0.0737862
122	0x3dfcf5a5	0.123515405
123	0x3dd00b06	0.101583526
124	0xbc806c56	-0.015676659
125	0xbe133a37	-0.14377676
126	0xbe94c2d7	-0.290549
127	0x3f060c20	0.5236225
128	0xbeb9bd43	-0.36277208
129	0xbd124eae	-0.035719566
130	0x3e7164eb	0.23573653
131	0x3e2b2b21	0.16715671
132	0xbe0ab982	-0.13547328
133	0x3ea30604	0.31840527
134	0xbf0f4081	-0.559578
135	0x3dd28148	0.10278565
136	0x3d36a326	0.044589184
137	0x3cc14842	0.023594026
138	0x3f3a455f	0.727621
139	0x3ed46bd8	0.41488528
140	0x3ebab66f	0.3646731
141	0xbcdbd6fa	-0.026835907
142	0xbdf2576a	-0.11833079
143	0x3e8d28fe	0.27570337
144	0x3d7c633c	0.061618075
145	0xbc7c84ff	-0.015412568
146	0x3d98605f	0.07440256
147	0xbd821468	-0.063515484
148	0x3db1f28b	0.086888395
149	0xbd6521f7	-0.055940595
150	0xbdcaa8e5	-0.09895495
151	0x3d787300	0.060656548
152	0x3e5b8d45	0.21440609
153	0x3e3dc45c	0.18531936
154	0x3d36ef37	0.044661727
155	0x3cd446f8	0.025912747
156	0xbaaf4db5	-0.0013374599
157	0xbe209739	-0.15682687
158	0x3c8f2bc7	0.01747693
159	0x3cf096d7	0.029368801
160	0xbc8118ec	-0.015758954
161	0xbe8c8359	-0.2744396
162	0xbe4890a7	-0.1958643
163	0xbea7cf03	-0.32775125
164	0x3f3c054c	0.7344558
165	0xbe38179c	-0.17977756
166	0xbeb071b6	-0.34461755
167	0x3f5893b4	0.8460038
168	0x3ec89fa1	0.39184287
169	0x3e15dcd5	0.14635022
170	0x3e91e3a7	0.28493997
171	0x3d6ae921	0.057351235
172	0x3e067f42	0.13134483
173	0x3b99f385	0.0046982192
174	0x3caae60f	0.020861654
175	0xbd8d6dc8	-0.06905705
176	0xbd89352b	-0.06699594
177	0xbc4c73f2	-0.012478815
178	0x3e2383c7	0.15968238
179	0x3e0f452a	0.13991228
180	0xbe8542fb	-0.26027665
181	0xbe0be6d0	-0.13662267
182	0xbc3931b4	-0.011303354
183	0xbd3867d6	-0.0450209
184	0xbf4b91b6	-0.7951921
185	0xbd4ec278	-0.05047843
186	0x3e91cefb	0.28478226
187	0x3d98cec9	0.07461316
188	0xbdc7e6cf	-0.0976082
189	0x3db452cb	0.08804854
190	0xbd2b626e	-0.041841917
191	0xbc3c3b98	-0.011488818
192	0x3df3dd3e	0.11907433
193	0x3d73d231	0.059526626
194	0x3cbb01ac	0.022827946
195	0x3db97720	0.090559244
196	0xbdbc5d02	-0.09197427
197	0xbdeb068c	-0.11475858
198	0x3ef4db06	0.47823352
199	0x3ed0a58c	0.40751302
200	0xbe114434	-0.14186174
201	0xbd312b45	-0.043254156
202	0x3e93c66f	0.2886233
203	0x3dd3b5a7	0.10337382
204	0x3f424f60	0.75902367
205	0xbdf2a08e	-0.118470296
206	0x3dfa1d44	0.12212613
207	0x3e8ce62c	0.27519357
208	0xbe62d2f5	-0.22150786
209	0x3ebbd655	0.3668696
210	0x3eb20dea	0.3477624
211	0xbd59f034	-0.05320759
212	0x3e6d75fa	0.23189536
213	0x3d8edc03	0.06975558
214	0x3e845f97	0.2585418
215	0xbe1746e7	-0.14773141
216	0xbdd2dddf	-0.10296225
217	0xbe124f45	-0.14288051
218	0x3e5bd0b9	0.2146634
219	0xbc821052	-0.015876923
220	0x3cae4e81	0.021277668
221	0xbb9c25e8	-0.004765261
222	0xbe286510	-0.16444802
223	0x3d1c1cf4	0.03811355
224	0x3ca8fb8b	0.020627758
225	0x3e67a774	0.22622472
226	0x3d11361c	0.035451993
227	0xbb223e49	-0.0024756363
228	0x3c912d69	0.017721849
229	0x3d557ba3	0.052119862
230	0x3c8169ba	0.015797485
231	0x3ddc3dd8	0.10753983
232	0xbdb1bb22	-0.08678271
233	0x3d439633	0.047750663
234	0x3e874c52	0.26425415
235	0xbf484753	-0.7823383
236	0xbe213af5	-0.15745147
237	0x3ea5ed4e	0.32407612
238	0x3f396e48	0.724339
239	0x3eaf699a	0.34260255
240	0x3f04368b	0.51645726
241	0x3dba600d	0.091003515
242	0xbf0ee3a1	-0.55816084
243	0xbe3a1a01	-0.18173982
244	0x3af81f6f	0.0018930266
245	0x3c61146a	0.013737777
246	0x3de716f7	0.11283677
247	0xbdcbf567	-0.09958916
248	0xbc17fa2c	-0.009275954
249	0x3d7799e1	0.060449485
250	0x3dfc2681	0.123120315
251	0xbe04e29f	-0.12977074
252	0xbe3cb151	-0.18427016
253	0x3ea94cc0	0.33066368
254	0xbd5b4abb	-0.053538065
255	0x3e018739	0.1264924

conv4.bias f4 [8]
0	0xbd975e49	-0.0739103
1	0xbea3e674	-0.3201176
2	0x3ef9d3d7	0.48794433
3	0x3e051dcc	0.12999648
4	0x3f01b154	0.50661206
5	0xbdce5976	-0.10075657
6	0x378f8400	1.7108396e-05
7	0x3e7779a5	0.24167497

conv5.weight f4 [2, 8, 3, 3]
0	0x3d03a9f8	0.032144517
1	0x3b0ca0be	0.0021458114
2	0x392c2d08	0.00016419974
3	0xbd696441	-0.056980375
4	0xbc43bbe5	-0.011946653
5	0xbd6ee793	-0.058326315
6	0xbca5d854	-0.020244755
7	0x3d05d607	0.032674816
8	0x3d92245c	0.07135841
9	0xbd006ea2	-0.031355508
10	0xbf14c332	-0.58110344
11	0x3f1cf29d	0.613077
12	0x3f4ac008	0.79199266
13	0xbf210ba8	-0.6290841
14	0x3d2c7f23	0.042113435
15	0xbe96ee32	-0.29478604
16	0xbf65b584	-0.89730096
17	0xbef5a3d9	-0.47976568
18	0x3dc5fc4a	0.09667261
19	0x3d670ce1	0.056408767
20	0xbe832545	-0.25614372
21	0x3e896e87	0.26842138
22	0x3ee4c1c4	0.4467908
23	0x3c9c248b	0.019060394
24	0x3be421de	0.006962045
25	0xbeb3ace5	-0.35092846
26	0x3ea09423	0.3136302
27	0xbe496f29	-0.1967131
28	0x3e9e9885	0.30975738
29	0x3e0d8b2f	0.13822626
30	0x3e89f09f	0.26941392
31	0x3dab0825	0.08351163
32	0xbe52f098	-0.20599592
33	0x3da2b472	0.079445735
34	0x3cdb0625	0.026736328
35	0xbd877310	-0.06613743
36	0xbd425c89	-0.04745153
37	0xbd928bca	-0.07155569
38	0x3dc7093a	0.09718557
39	0xbb8b559f	-0.00425215
40	0x3f3c4fca	0.7355925
41	0xbec25ff3	-0.37963828
42	0xbe01b361	-0.12666084
43	0xbea48e74	-0.32139933
44	0xbd1c46c7	-0.038153436
45	0xbd89528f	-0.067052
46	0xbd90a28d	-0.07062254
47	0x3d1fa93d	0.038979758
48	0xbdfe8125	-0.12426976
49	0x3d40d8e7	0.047081854
50	0x3dbc75a1	0.092021234
51	0xbcdecea4	-0.027198143
52	0x3cc01fb5	0.02345262
53	0xbd8751be	-0.06607388
54	0x3deadfa1	0.11468435
55	0xbd6ecd01	-0.058300976
56	0xbe5da37d	-0.21644397
57	0x3e47dbe5	0.19517477
58	0x3f075013	0.5285656
59	0x3f2738b7	0.65320915
60	0x3eb2f5dd	0.34953204
61	0x3d5e47e7	0.05426779
62	0x3d8a24da	0.0674531
63	0xbe63b414	-0.22236663
64	0x3d0f72ad	0.035021473
65	0x3ded8231	0.11597098
66	0xbf2115f9	-0.6292415
67	0x3ee08212	0.43849236
68	0xbe935c15	-0.2878119
69	0x3e9f8c08	0.31161523
70	0x3f0c61d5	0.5483678
71	0x3eabaa3d	0.3352832
72	0x3cb86432	0.022508714
73	0xbd03f6fc	-0.032217965
74	0xbd818455	-0.063240685
75	0x3d429204	0.047502533
76	0x3dbd5cd7	0.092462234
77	0xbae32c76	-0.0017331976
78	0xbcd8cb06	-0.026463997
79	0x3d56fc5b	0.05248676
80	0xbcbbedf8	-0.02294062
81	0xbeb34330	-0.35012197
82	0x3e566fcd	0.20941086
83	0xbee6a138	-0.45044875
84	0x3f15e6ee	0.58555496
85	0x3da3f035	0.080048
86	0xbf98dd91	-1.1942617
87	0xbf20c5e8	-0.6280198
88	0x3cb9da35	0.022687057
89	0x3f08f2bd	0.5349539
90	0x3e6db120	0.23212099
91	0xbda3efea	-0.08004744
92	0xbe886376	-0.26638383
93	0x3cb211ec	0.021737061
94	0x3d936d6e	0.071986064
95	0x3ecb1395	0.39663377
96	0xbd568f30	-0.052382648
97	0x3de9b260	0.114109755
98	0x3e03dee2	0.12877992
99	0xbd13e0b0	-0.03610295
100	0x3e8c671d	0.2742242
101	0x3dc85c7a	0.097832635
102	0x3e861d8d	0.2619442
103	0xbe6df750	-0.23238873
104	0xbd2473d1	-0.040149514
105	0x3e3ee7dd	0.18643136
106	0xbeb44057	-0.35205337
107	0x3d0c5f5e	0.034270637
108	0x3c8989c1	0.016789319
109	0x3cc00d51	0.02344385
110	0xbd85700d	-0.065155126
111	0xbcbb662c	-0.022875868
112	0x3ef6fa6b	0.4823793
113	0x3c80abb9	0.015706884
114	0x3e411db5	0.18858989
115	0x3d64a54a	0.055821694
116	0xbe250006	-0.1611329
117	0xbd75a947	-0.05997589
118	0x3d20073f	0.03906941
119	0x3d9f03a7	0.077643685
120	0x3d31a11f	0.043366548
121	0xbd3e6354	-0.046481445
122	0xbc243020	-0.0100212395
123	0x3cb7dd55	0.022444407
124	0xbd9d6303	-0.076849006
125	0x3db14ffd	0.08657835
126	0xbdf91950	-0.12163031
127	0xbdf84972	-0.121233836
128	0xbe3db35c	-0.18525451
129	0x39fbe02c	0.00048041472
130	0x3ee4e8f7	0.44708988
131	0x3f32b72c	0.6981075
132	0xbdb1b40b	-0.086769186
133	0xbe7aeff9	-0.24505605
134	0x3dfadf9c	0.12249681
135	0xbd9b1e26	-0.0757411
136	0x3d894378	0.06702322
137	0x3d3ca769	0.046058092
138	0xbe8e9888	-0.27850747
139	0xbdc0a130	-0.09405744
140	0x3aeb501e	0.0017952954
141	0xbe68dfcb	-0.2274162
142	0x3d328396	0.04358252
143	0x3e4a8e45	0.19780834

conv5.bias f4 [2]
0	0x3bd0d706	0.006373289
1	0x3d9da78c	0.07697973

fc.weight f4 [81, 162]
0	0x3f8e1d8d	1.1102768
1	0x3e62310a	0.2208902
2	0x3e07dad6	0.13267073
3	0xbd0f18d3	-0.034935784
4	0x3d2826b9	0.041052554
5	0x3d61a6a6	0.05509057
6	0x3ca30db7	0.019904
7	0x3e0da0e6	0.13830909
8	0x3da85168	0.08218652
9	0x3e205829	0.1565863
10	0xbd9e8561	-0.07740284
11	0xbd45aac7	-0.04825857
12	0x3e101138	0.14069068
13	0x3c3e7b6a	0.011626104
14	0x3dcf9667	0.10136109
15	0x3de12739	0.10993809
16	0x3bf3084c	0.0074167605
17	0x3cf1cf43	0.029517775
18	0x3e7dc89d	0.24783559
19	0xbcc74e56	-0.024329346
20	0xbd6174cf	-0.055043038
21	0x3d2757e1	0.040855292
22	0x3e0b44e8	0.13600504
23	0x3de63948	0.11241394
24	0x3d854661	0.06507564
25	0x3dd26cc7	0.10274654
26	0x3c4727d4	0.012155492
27	0x3d1b19c7	0.03786638
28	0x3e03fac0	0.12888622
29	0x3d60e502	0.0549059
30	0xbc5f647f	-0.0136348
31	0x3d8c141a	0.068397716
32	0x3dc38cb8	0.09548324
33	0x3de94987	0.11390977
34	0x3d1ff91d	0.039055932
35	0x3cf5f1ee	0.030022588
36	0xbb562349	-0.003267484
37	0x3e00d8fa	0.1258277
38	0x3ddac88c	0.106827825
39	0x3dd6eb8f	0.10494148
40	0x3dc99865	0.0984352
41	0x3dd8bea6	0.10583238
42	0x3da0b2f2	0.07846631
43	0x3dadfc11	0.084953435
44	0x3cb81a55	0.022473494
45	0x3d88a5f7	0.0667228
46	0x3cdd42ae	0.027009334
47	0x3dc7849a	0.097420886
48	0x3dfc5782	0.12321378
49	0x3d326b70	0.04355949
50	0x3e12d86c	0.14340371
51	0x3d5f0966	0.054452322
52	0x3cb7fdd2	0.022459898
53	0x3d4f6f07	0.050642993
54	0x3ceb63b6	0.02873407
55	0x3dab3c30	0.08361089
56	0x3d80d7bf	0.0629115
57	0x3db4d8a2	0.08830382
58	0xbd093c93	-0.033505034
59	0x3dd92e1c	0.10604498
60	0x3d56a583	0.052403938
61	0x3d05be68	0.03265229
62	0x3d89a6ef	0.06721293
63	0x3c9a08a7	0.018802954
64	0x3d95b111	0.07309163
65	0x3d6701ae	0.056398086
66	0x3dac37e5	0.084090985
67	0x3ceafbf4	0.028684594
68	0x3da9e5a6	0.08295755
69	0x3d398bfd	0.04529952
70	0x3d350ff5	0.04420467
71	0x3db29e78	0.08721632
72	0xbcacffed	-0.021118129
73	0x3d0e1257	0.03468546
74	0x3d2c4430	0.042057216
75	0x3d331a8a	0.04372648
76	0xba34d7cb	-0.0006898611
77	0x3c7119bf	0.014715611
78	0x3d47ce1d	0.04878055
79	0xbb6cd695	-0.0036138643
80	0x3d1ba264	0.037996665
81	0x3f25a423	0.6470358
82	0xbdf4c06e	-0.119507656
83	0x3cb1cb95	0.02170352
84	0x3dd5a384	0.10431579
85	0x3e00d18e	0.12579939
86	0x3ca17105	0.019707212
87	0x3ce7aaec	0.028279744
88	0x3d4c5b98	0.049892038
89	0xbd4cb38a	-0.04997591
90	0x3ec4f452	0.38467652
91	0x3e8f0986	0.27936953
92	0x3d9d2619	0.07673282
93	0x3dced68c	0.10099515
94	0x3da78c55	0.08181063
95	0x3cd38976	0.025822382
96	0x3dbf5669	0.09342653
97	0x3e073a11	0.13205744
98	0x3e0bcb32	0.13651732
99	0xbdec5893	-0.11540332
100	0x3e538618	0.20656621
101	0x3e921a92	0.28535897
102	0x3d3757b5	0.04476138
103	0x3d68b7dd	0.05681597
104	0x3cacf6f8	0.021113858
105	0x3db54826	0.08851652
106	0x3d8d720b	0.069065176
107	0x3e01fdab	0.12694423
108	0x3b813d9d	0.0039441125
109	0x3d3d0402	0.0461464
110	0x3e09ba4b	0.13449971
111	0x3e510ad3	0.20414285
112	0x3d53667e	0.051611416
113	0x3de80e30	0.11330831
114	0x3d145ac3	0.03621937
115	0x3e104c3a	0.14091578
116	0x3dfb6f03	0.12277033
117	0x3de2e344	0.11078504
118	0x3d52b0c7	0.05143812
119	0x3d2f492d	0.042794395
120	0x3d7625fa	0.06009481
121	0x3d9bed15	0.07613579
122	0x3d79f7e8	0.061027437
123	0x3d9b6a66	0.07588653
124	0x3e16f0f0	0.14740348
125	0x3e07032f	0.13184808
126	0x3d90544e	0.0704733
127	0x3da3f565	0.0800579
128	0x3d37aaa8	0.044840485
129	0x3d96dfae	0.07366882
130	0x3dfa4654	0.12220445
131	0x3cfbd3a1	0.030740561
132	0x3e0f8a1e	0.14017531
133	0x3da7f5ed	0.082012035
134	0x3d31a60b	0.04337124
135	0x3d824162	0.06360127
136	0x3dcbbc60	0.09948039
137	0x3deee33f	0.116644375
138	0x3c187ece	0.009307576
139	0x3e8b9bad	0.2726721
140	0xbd0dbab7	-0.034601893
141	0x3dc14003	0.094360374
142	0x3ddc1d0a	0.10747726
143	0x3ce2b0af	0.02767214
144	0x3d895c75	0.06707088
145	0x3d737aa0	0.059443116
146	0x3d6847ba	0.05670903
147	0x3d7d7167	0.061875727
148	0x3e0e310a	0.13885894
149	0x3d0201f2	0.031740136
150	0x3e0e9236	0.13922963
151	0x3d70a3db	0.058750015
152	0x3db5e74a	0.088820055
153	0x3dfcb05c	0.123383254
154	0x3db70703	0.08936884
155	0x3d89bbe1	0.06725288
156	0x3df5cdfb	0.12002178
157	0x3e1f75d9	0.15572299
158	0x3d010a9b	0.031504255
159	0x3d8b8e66	0.0681427
160	0x3de0d603	0.109783195
161	0x3d818108	0.06323439
162	0x3d0da415	0.03458031
163	0x3f7bb71c	0.9832628
164	0x3e7bee46	0.24602613
165	0x3e33dd22	0.17564824
166	0xbd81d78b	-0.0633994
167	0x3ce58847	0.028019084
168	0x3dd93d48	0.106073916
169	0xbc2e0c23	-0.010623011
170	0x3dd13ba7	0.10216456
171	0x3e000abb	0.12504093
172	0x3e28197e	0.16415974
173	0x3b67e6c7	0.0035385357
174	0xbcf86d8d	-0.030325675
175	0x3e38fd10	0.18065286
176	0x3d1db273	0.03850026
177	0x3daaca83	0.08339407
178	0x3d660a4f	0.056162175
179	0x3d128986	0.035775684
180	0xbc849918	-0.016186282
181	0x3e4ab932	0.19797209
182	0x3d3f175f	0.046653148
183	0xbd181d0a	-0.03713707
184	0x3d8da3fc	0.06916043
185	0x3e2d2ffa	0.16912833
186	0x3d56122d	0.052263428
187	0x3cf159f9	0.029461848
188	0x3d1f6063	0.03891028
189	0x3d3afdd7	0.045652237
190	0x3de828f7	0.113359384
191	0x3deb0d2b	0.11477121
192	0x3d291951	0.04128391
193	0x3c8c76b3	0.017146444
194	0x3d402925	0.04691424
195	0x3dec918c	0.11551198
196	0x3d20fdb4	0.03930445
197	0x3d9edefb	0.07757374
198	0x3da325fb	0.079662286
199	0x3d7aa750	0.061194718
200	0x3e05c026	0.1306158
201	0x3d7fd182	0.06245566
202	0x3e09b753	0.13448839
203	0x3e20ad0a	0.15691009
204	0x3da1e1dd	0.07904408
205	0x3d8ced05	0.068811454
206	0x3d0d0e73	0.034437608
207	0x3d999cc2	0.07500602
208	0x3dc46ca4	0.09591034
209	0x3d7b4003	0.061340343
210	0x3e03f41a	0.12886086
211	0x3dad24bb	0.084542714
212	0x3d30749a	0.04307995
213	0x3e16a335	0.14710696
214	0x3cfe9935	0.031078914
215	0xbaa8ea1b	-0.0012887152
216	0x3d3e0a03	0.046396267
217	0x3da1c73c	0.07899329
218	0x3d3f99d6	0.04677757
219	0x3ce5e5d0	0.028063685
220	0x3e261bfa	0.1622161
221	0x3b382e5a	0.00281038
222	0x3de0765a	0.10960074
223	0x3dd4e394	0.103949696
224	0x3d85bd04	0.065301925
225	0x3da329fb	0.079669915
226	0x3da010dc	0.07815716
227	0x3d11c994	0.03559263
228	0x3d761788	0.060081035
229	0x3d93c991	0.0721618
230	0x3da4d44f	0.08048307
231	0x3d40b03c	0.04704307
232	0x3caf3802	0.021389011
233	0x3d316d15	0.04331692
234	0x3d7c11c4	0.06154038
235	0x3d0bca98	0.034128755
236	0xbd675d59	-0.056485508
237	0x3d5dfb95	0.054195005
238	0x3c64664e	0.013940407
239	0x3d87b421	0.06626154
240	0x3d7f66d7	0.062353935
241	0x3ce163d1	0.027513416
242	0x3d75e9fa	0.06003759
243	0x3f085844	0.5325968
244	0x3f1e0166	0.61720884
245	0xbd8af29f	-0.067845576
246	0x3df6ebb5	0.12056676
247	0x3e2690fc	0.16266245
248	0x3d668ef7	0.056288686
249	0x3d1dc5c7	0.038518693
250	0x3da6a24e	0.08136426
251	0x3d687b5d	0.056758273
252	0x3ca19d6b	0.019728383
253	0x3ea39b37	0.31954357
254	0x3e5248d2	0.20535591
255	0x3d9dd7b1	0.077071555

fc.bias f4 [81]
0	0x3e1582fb	0.14600746
1	0x3defc88e	0.11708175
2	0x3e48d82e	0.19613716
3	0x3e61ddd0	0.22057271
4	0x3ea4f7fe	0.32220453
5	0x3e7fac7a	0.24968138
6	0x3e5dd08c	0.21661586
7	0x3e0bf4ec	0.13667649
8	0x3e9ca402	0.30593878
9	0x3e30fd91	0.17284228
10	0x3dae7d9f	0.08520054
11	0x3dec4c70	0.11538017
12	0x3e2bafd9	0.167663
13	0x3e85c905	0.26129928
14	0x3e1ec9bd	0.15506645
15	0x3dd6adb3	0.10482349
16	0x3e20b5e4	0.15694386
17	0x3e7c6331	0.24647214
18	0x3e1f3f1d	0.1555142
19	0x3d38f4d5	0.045155365
20	0x3de09e46	0.10967688
21	0x3e51ef8d	0.20501538
22	0x3e82725f	0.25477883
23	0x3e322cfd	0.17399974
24	0x3e1a7ff0	0.15087867
25	0x3db723ef	0.08942401
26	0x3e392e5f	0.18084095
27	0x3e0d1a04	0.13779455
28	0x3db81378	0.08988088
29	0x3e0b5bf4	0.13609296
30	0x3e4d5aba	0.2005414
31	0x3e9c031b	0.3047112
32	0x3e35b9e5	0.17746694
33	0x3e073f0a	0.13207641
34	0x3d165b04	0.036707893
35	0x3e2483d3	0.16065912
36	0x3e898e06	0.26866168
37	0x3e507bfc	0.20359796
38	0x3e6d0746	0.23147306
39	0x3e8e6a9e	0.27815717
40	0x3e8dea8f	0.27718017
41	0x3e919d5d	0.2844037
42	0x3e640a02	0.22269443
43	0x3e26dcb9	0.16295137
44	0x3e8366b0	0.25664282
45	0x3e0090b4	0.125552
46	0x3dbd9179	0.09256262
47	0x3df32d29	0.11873848
48	0x3e431a8b	0.19053094
49	0x3e84d1e6	0.2594139
50	0x3e4e8085	0.20166214
51	0x3de8ebb3	0.11373081
52	0x3da9f049	0.08297784
53	0x3e348d37	0.17631994
54	0x3e100ef6	0.14068207
55	0x3d7a89f1	0.061166707
56	0x3dcd4606	0.100231215
57	0x3e090fcb	0.13384931
58	0x3e5d5826	0.21615657
59	0x3e1835a4	0.14864212
60	0x3d758a82	0.059946544
61	0x3a817591	0.0009876956
62	0x3ddd3593	0.10801234
63	0x3e6c9cf5	0.2310675
64	0x3da27303	0.07932093
65	0x3daf1601	0.08549119
66	0x3e2c835a	0.16846982
67	0x3e662e13	0.22478513
68	0x3e016738	0.12637031
69	0x3d534d83	0.051587593
70	0x3d4531be	0.04814314
71	0x3dc8d69e	0.0980656
72	0x3e0307d5	0.12795956
73	0x3d987d83	0.074458145
74	0x3dc4fea4	0.09618881
75	0x3d9c6b3c	0.07637641
76	0x3e5ed1d0	0.21759725
77	0x3df36972	0.118853465
78	0x3db46dd7	0.08810013
79	0x3e0017cd	0.1250908
80	0x3dd1409b	0.10217401
