model.onnx (onnx, 132315 bytes, 12 tensors)

conv1.weight f4 [8, 2, 3, 3]
000000 78 98 a5 be a7 c9 99 3e 94 e3 5a be 77 ca 50 3e
       -0.32342887 0.3003666 -0.21375877 0.20389734
000010 dd ae f0 3e 41 3a 2f 3e 95 1a 9a be 9d 74 a1 3e
       0.4700841 0.17112066 -0.30098405 0.3153428
000020 8b fa a1 bd b3 9f 70 3e 29 5d a8 be 85 27 21 3e
       -0.079091154 0.2349842 -0.32883576 0.15737732
000030 0c 29 7c be c9 4e fc be bf 33 6a be 21 91 44 3e
       -0.24625033 -0.49278858 -0.22871302 0.19195987
000040 f1 35 a0 be 78 63 b7 3d fb de ff 3e 77 c5 82 bd
       -0.31291154 0.08954519 0.49974808 -0.0638532
000050 5c c5 82 bd d1 5a 95 bc a4 18 f0 3e e8 30 8b 3d
       -0.063852996 -0.018231781 0.468938 0.067964375
000060 05 02 d3 be 56 35 00 be 6f 1f ea 3e 90 1a 13 bf
       -0.41212478 -0.12520346 0.45727107 -0.57462406
000070 24 d3 b6 3c 2f 3b 3d 3e 2a d6 7f 3d 42 8f 05 bf
       0.022317477 0.18479608 0.062460102 -0.5217172
000080 b4 93 f2 bd 8a 70 06 3e dd 40 48 bd bd 82 02 bf
       -0.118445784 0.13128868 -0.048889983 -0.5098074
000090 1c 98 14 3d 0c 57 9c be 4b 45 9b 3e ca 1a 88 bd
       0.036277875 -0.30535161 0.30326304 -0.066457346
0000a0 11 f4 b5 be 41 af 49 3d f0 e3 2c be 8c c3 bd 3e
       -0.3553777 0.0492394 -0.16883826 0.37063253
0000b0 01 13 0b bf b8 6e e5 3c 15 90 e4 bc 97 d3 fb 3d
       -0.5432587 0.028006896 -0.027900735 0.12296217
0000c0 54 e6 34 be 10 8e 9e 3e 5c ae 4f be ba a6 ac bc
       -0.17665988 0.3096776 -0.20281357 -0.021075595
0000d0 a8 cb 8b bc 8c 5f 5a 3e 2c f8 ee 3e c6 ad cd bc
       -0.017064884 0.2132551 0.46673715 -0.025107276
0000e0 ee 65 b7 3e 6d 3c 51 3d 13 85 02 bd a8 7b 7f be
       0.35819954 0.051083017 -0.03186519 -0.24949515
0000f0 e9 1b c7 3e b6 22 3b bc b0 4d a2 3e 65 80 ef bd
       0.3888848 -0.01142185 0.31699896 -0.11694411
000100 6e 16 91 3d 91 ec 69 bd 5f dc 4e bd 91 37 74 bc
       0.07084356 -0.057110373 -0.05050313 -0.014905826
000110 76 07 f9 3d 4e 03 6c bd a3 7b 89 3d 57 79 80 bd
       0.12159626 -0.05762034 0.06713035 -0.06273144
000120 b2 07 ab 3d 52 b1 2e 3e 30 79 23 3e 0e be 7b 3d
       0.08351077 0.1705983 0.15964198 0.061460547
000130 f7 77 62 3e 23 b4 59 3e 65 41 f7 3e 8d 8f f8 3d
       0.22116075 0.21260123 0.4829208 0.12136755
000140 f5 21 aa 3e a1 ee d7 3d b1 38 44 3c b0 04 34 be
       0.33229032 0.10543562 0.011976407 -0.17579913
000150 f6 3c 51 3a 11 ad e6 be 6e 1e b4 3d 42 2b 5c bd
       0.0007981801 -0.45053914 0.087948665 -0.05375219
000160 8c b5 81 3d ab 5c b3 3c 0b 47 40 be c2 fe 6d 3e
       0.063334554 0.021894773 -0.187771 0.23241714
000170 8b 8f 1c 3f a7 f4 2c 3e 4d 2a 2e be 27 4f 8a bd
       0.6115653 0.16890202 -0.17008324 -0.06753378
000180 3f c4 03 be 17 30 9d be 2f 31 27 3e 2b 4c ba be
       -0.1286783 -0.30700752 0.16327356 -0.36386237
000190 c1 96 18 be 3f 49 8b bd c8 9a 0e bd ae e3 85 3d
       -0.14901258 -0.0680108 -0.03481558 0.06537567
0001a0 6b 6d 81 bd b6 e6 54 3e 3b 8f ca 3d 31 fc 8f bd
       -0.06319698 0.20791134 0.098906 -0.070305236
0001b0 e9 e4 e2 be 85 71 48 3c a0 88 b0 3e 41 53 08 3e
       -0.4431527 0.012234096 0.34479237 0.13313009
0001c0 9d 48 b8 3e 9b 52 bb 3e be 75 0a 3e 4f f4 bf 3d
       0.359929 0.3658646 0.13521478 0.0937277
0001d0 a2 d8 5a 3d 3d 07 1b bd c2 49 50 3e 3e 8e 27 be
       0.053429253 -0.0378487 0.20340636 -0.16362855
0001e0 8c f5 bf be 59 16 12 bf a9 f7 3d be 5b d3 28 3c
       -0.37492025 -0.5706535 -0.18551506 0.010304297
0001f0 74 fd 92 3c 4c 34 86 bd 53 b2 14 3d bd bf 43 3e
       0.017943121 -0.065529436 0.036302876 0.19116111
000200 8f ca be 3e 53 6d 1e 3e b0 08 d6 3e 49 d1 29 bd
       0.37263915 0.15471391 0.41803503 -0.041459356
000210 f5 39 58 3e 38 4e 0b 3e 3b bd db be 26 90 a3 bc
       0.21115859 0.13604057 -0.4291781 -0.019966196
000220 e2 1c 16 be 25 b4 c8 bd c0 cf 02 bd 96 99 da be
       -0.14659455 -0.09799985 -0.031936407 -0.42695302
000230 50 9f fb ba 36 e7 73 be c0 c6 06 be 8f c9 8c 3e
       -0.0019197259 -0.23818669 -0.13161755 0.27497527

conv1.bias f4 [8]
000000 e3 c7 99 39 2f 80 85 bd 86 a9 07 3e 38 d4 90 be
       0.0002933136 -0.0651859 0.13248262 -0.2828691
000010 da cd 93 be 5c 5c 88 3d 6f f0 98 bd 24 9e 7d bd
       -0.2886799 0.06658241 -0.07467734 -0.061918393

conv2.weight f4 [8, 8, 3, 3]
000000 e3 7b 9e be bc ae 29 bd 68 ff 3f 3e 9d 46 94 3d
       -0.30953893 -0.041426405 0.18749774 0.07240031
000010 0d ff a2 be f6 93 56 3e b6 0a 61 3e 1d 0c 00 3e
       -0.31835213 0.2095488 0.21976742 0.12504621
000020 e9 b4 a1 3e c9 14 8c be db 0a 44 be 1d 54 bb 3d
       0.31583336 -0.27359608 -0.19144766 0.09146903
000030 6b 11 38 be 3c 5d a3 bd f6 cf 46 3b 3b 54 fd 3d
       -0.17975394 -0.079767674 0.0030336357 0.12369581
000040 d2 b2 c1 be 9a 89 ea 3d df cb d3 3e 9a 5b 3e 3e
       -0.37831742 0.11452027 0.4136648 0.1858963
000050 ae 0d 17 be 3a 6b 31 3d 50 b2 ff 3d 65 74 8d be
       -0.14751312 0.04331515 0.12485182 -0.27627864
000060 ac f6 be 3c 71 33 0c be 4e be 0c 3e d1 75 88 be
       0.023310982 -0.13691498 0.1374447 -0.26652387
000070 b5 6f 2f be 18 42 01 be a9 19 00 bd 45 99 a9 3e
       -0.17132457 -0.12622869 -0.03127447 0.33124748
000080 0a 35 18 3e 9f f4 00 bf 00 9d 29 3b c8 61 dc 3c
       0.14863983 -0.5037326 0.0025880933 0.026902094
000090 7b 53 f2 be 53 b1 53 bd 1d 8d 3e 3e d8 0b 01 bc
       -0.47329316 -0.05168278 0.18608518 -0.007876359
0000a0 48 86 d2 3d 33 ab 29 3e bb 03 3a be b1 3c 3c 3d
       0.10279518 0.16569214 -0.18165486 0.045956317
0000b0 e8 bc 10 3e 75 20 19 3e 83 2b 8d 3e 63 8a 36 bd
       0.14134562 0.14953788 0.2757226 -0.04456557
0000c0 4f cb c7 be 41 df f6 bd bd 32 da bc 6d fb 70 bd
       -0.390223 -0.12054301 -0.026635522 -0.05883353
0000d0 0b de 9c 3d b1 9e fd 3d 55 e1 9d bc bc fc 17 be
       0.07659539 0.123837836 -0.019272486 -0.14842504
0000e0 99 43 21 3e cd 2d b5 bd d6 8c ce bc 22 40 50 3e
       0.15748443 -0.088466264 -0.02521364 0.20336965
0000f0 92 95 b2 3e 0c c2 11 3e 7a ce 6b 3e a2 e0 dd bd
       0.34879738 0.1423418 0.23027983 -0.10833861
000100 40 d4 d5 be db 42 06 3e b6 fd 9c be ef a4 b8 be
       -0.41763496 0.13111441 -0.30662316 -0.36063334
000110 f8 f9 5b 3d 4a 40 22 3e 7d 46 e2 3d 36 dc de 3e
       0.053705186 0.15844837 0.11048601 0.43527383
000120 fc 01 0b bf 72 db b0 3e b4 ce 79 be bc 4c 72 be
       -0.542999 0.34542423 -0.24395257 -0.23662084
000130 27 6b 87 3d 0a 4e 06 be 7f c1 92 3e b9 0a b7 3e
       0.066122346 -0.13115707 0.2866325 0.35750368
000140 a2 2d 83 3e 9a 41 9c 3e 29 84 21 bd a7 d8 ca bc
       0.25620753 0.305188 -0.03943268 -0.024761511
000150 39 82 37 be 4a 7f 98 3e 39 00 16 bd d3 8c 23 3e
       -0.1792077 0.29784614 -0.036621306 0.15971689
000160 3a 04 76 bd fd e6 b2 3e 3a ec ac 3c b8 b1 84 3d
       -0.060062625 0.34941855 0.021108735 0.0647921
000170 87 19 7b 3d 88 60 b9 be 3f 31 85 3c 0a 58 77 3d
       0.06130364 -0.3620646 0.016258834 0.060386695
000180 3d eb 58 bd 38 9f 24 3c ce 0b 8d be 6f 91 7d 3e
       -0.052958716 0.010047726 -0.2754807 0.2476251
000190 d3 5b 5a bc 52 df ab 3e d4 fe 03 3e 0a cc 9d 3e
       -0.013327557 0.33568817 0.12890178 0.30819732
0001a0 d9 69 60 3e 2b 4c b9 be 3c 99 07 bf 32 1d a7 3e
       0.21915378 -0.36190924 -0.5296819 0.32639462
0001b0 4a 66 2a 3e ba fb e7 3d 24 a2 26 bd 9d c5 c4 3e
       0.16640583 0.1132731 -0.040681973 0.38432017
0001c0 96 c3 4e 3e 4e f5 67 3e 52 05 50 3d 33 3c fe 3d
       0.20191798 0.2265217 0.050786324 0.12413826
0001d0 26 67 8f 3e 09 d1 a9 3d fd f8 03 3e 87 d1 7b be
       0.28008384 0.082918234 0.1288795 -0.24591647
0001e0 b1 09 90 3d b1 e9 16 be 03 91 a1 be fd c3 ed bd
       0.070330985 -0.14737584 -0.31555948 -0.116096474
0001f0 02 85 5a bd f9 ee aa bd b6 df 39 be 14 a8 01 3e
       -0.053349502 -0.08346362 -0.18151745 0.12661773
000200 95 b1 92 be e4 32 46 bc 87 7d 81 bd e4 d7 01 be
       -0.2865111 -0.012097094 -0.063227706 -0.12680012
000210 14 e4 9c 3d 26 b0 03 3e 18 80 8c 3e 20 85 03 bf
       0.0766069 0.12860164 0.27441478 -0.5137501
000220 d3 01 8a 3e dc b8 48 bd f2 3a 8e be b2 9c f0 bb
       0.26954517 -0.04900442 -0.27779347 -0.0073428983
000230 b6 ba 67 bd 93 60 29 3d d0 34 6f 3e 95 1e aa bd
       -0.056574546 0.041351866 0.2335999 -0.08306614
000240 11 0d 5f bc 0c a6 24 be 98 90 e7 3c 83 99 4a 3d
       -0.013613955 -0.16078967 0.02826719 0.049462806
000250 63 f7 46 3d d3 bb 58 3e 56 fa 9e be dd 4c 78 bc
       0.04857577 0.21165399 -0.31050366 -0.015155044
000260 13 99 a9 bb c4 4a 1e 3e af 36 51 3d da 99 e6 3d
       -0.0051757186 0.15458208 0.05107754 0.112598136
000270 36 ed 44 bd 7c 02 02 3e c4 61 12 3e 59 a9 d8 be
       -0.048077784 0.1269626 0.14295107 -0.42316702
000280 11 2d 34 be 72 5b c9 3c 82 e5 62 be 56 6e 9f 3d
       -0.17595316 0.024579737 -0.22157863 0.07784717
000290 c9 b7 48 be eb 5d 06 be e0 97 08 3d 67 c2 04 be
       -0.19601358 -0.13121764 0.033347964 -0.12964784
0002a0 95 9a 19 bf a5 6f 9c be 01 2d 16 be 9c 89 a4 bd
       -0.600015 -0.30553928 -0.14665605 -0.080340594
0002b0 89 6b a8 3e 68 f6 a0 3e a7 29 fe bc 95 0c 81 3e
       0.32894543 0.31437993 -0.03102572 0.25204912
0002c0 df 45 be bd b9 24 58 3e 5d 51 4e be 64 09 7c bd
       -0.092906706 0.21107759 -0.20148225 -0.061532393
0002d0 7f 9f 28 3c dd 5a 27 bd 11 80 a8 3e db 55 b2 3b
       0.010291933 -0.04085814 0.32910207 0.0054423637
0002e0 77 fe ac 3e 8a 07 a5 3e 26 13 f8 3e f9 17 97 3d
       0.3378789 0.32232314 0.4845211 0.07377619
0002f0 f7 49 19 bd 58 6e d4 bd fa 00 fa bd 6c 80 8b 3e
       -0.037424054 -0.10372609 -0.122072175 0.27246416
000300 b3 08 b3 3d bd 5b 44 be 97 04 a1 3d 75 6b f5 be
       0.087418936 -0.1917562 0.078622036 -0.47933546
000310 e7 d3 e4 bd e9 3d 09 3d 98 40 01 be a2 f9 0d 3d
       -0.1117323 0.033506308 -0.12622297 0.034661897
000320 b0 90 fd 3e f2 9e 7a 3d 9d 12 cc 3d 95 14 57 3e
       0.4952445 0.06118674 0.09964488 0.21003945
000330 30 50 17 3e f2 7a a4 bd de ec 73 bd f3 dc 85 be
       0.14776683 -0.080312625 -0.059552066 -0.26145133
000340 0c 10 c9 be cd 34 a4 3e 1d 78 e5 bc 7f 5b 66 bc
       -0.39270055 0.32071534 -0.028011376 -0.0140599
000350 74 51 06 be 27 64 c4 3e c8 ee 44 bd 9d 0e 90 be
       -0.1311701 0.3835766 -0.048079282 -0.2813615
000360 2b 18 07 3e e4 84 29 3e 23 bf 98 bd 3f 5c ee 3d
       0.13192813 0.165546 -0.074583314 0.11638688
000370 11 68 cf bc fc f3 d2 bb 00 ba 35 3e f1 9d 1b 3e
       -0.025318177 -0.0064377766 0.17746735 0.15196969
000380 24 40 e4 3c 1b 4b fd bd bb 59 80 be 64 a9 57 3e
       0.027862616 -0.12367841 -0.2506846 0.21060711
000390 84 df 18 3a 77 bd 15 be fc 68 00 be 58 7a 05 3e
       0.0005831646 -0.14623056 -0.12540048 0.13034952
0003a0 6c 6c 20 be d6 40 b9 be 32 d9 3f be b8 f3 9d be
       -0.1566636 -0.36182278 -0.18735197 -0.30850005
0003b0 be 3b 9b be 09 0c 54 be e4 24 d3 be 3e 10 5f be
       -0.30319017 -0.20707716 -0.41239083 -0.2178354
0003c0 f5 b8 0e bf 71 21 8b be 82 62 8e 3d c5 e8 e7 bc
       -0.5575097 -0.2717395 0.069523826 -0.028309235
0003d0 ad 4a 87 3e 9d 01 a2 3e 02 7c 1a 3e c2 53 4b 3e
       0.2642416 0.31641856 0.15086368 0.1985617
0003e0 ad c7 82 3e 34 c1 54 3e 1b bc 84 3e 54 49 80 3e
       0.25542966 0.20776826 0.25924763 0.25055945
0003f0 d5 c9 69 3e 84 72 53 3e 97 52 f8 3d a7 a4 76 3d
       0.22830899 0.20649153 0.12125128 0.06021562

conv2.bias f4 [8]
000000 4f 44 02 3e 0c 1c 6f be 9a 7d 32 be 4f a5 8e be
       0.1272137 -0.23350543 -0.17430726 -0.27860495
000010 ac 4b 24 be 6b d9 c9 3c 7d 06 ba bd 8c 66 05 bd
       -0.16044492 0.024639806 -0.09083269 -0.0325685

conv3.weight f4 [8, 8, 3, 3]
000000 60 55 48 3e c6 79 88 3d cf fd dd be 09 e1 01 3e
       0.19563818 0.066638514 -0.43357703 0.126835
000010 29 2b e7 bc c2 ea 7f 3e 90 40 d7 bb 9d ac 8d be
       -0.028218823 0.24991897 -0.0065689757 -0.27670756
000020 31 c2 aa be 15 87 12 be 96 8f df 3d 22 bd 1e be
       -0.3335128 -0.14309342 0.10916059 -0.15501836
000030 48 6b ad 3e 2e 58 37 3e 18 30 f8 3e 17 c1 10 bf
       0.33870912 0.17904732 0.48474193 -0.5654463
000040 ac df 63 3e 5d d2 dd 3d 98 c8 0b 3e 16 2b 12 be
       0.22253293 0.10831139 0.13650739 -0.14274248
000050 11 85 6b 3d ab 5c 1d 3d 37 45 98 3d 92 33 8a 3d
       0.05749995 0.038418453 0.07435077 0.067481175
000060 e3 ac 2a 3e 9e 91 f3 3d fc 4e 50 3e 35 ca 78 be
       0.16667514 0.11893009 0.2034263 -0.24295886
000070 af 1a e4 3e 14 8d b3 3e c8 4f 03 3f 02 9f bd 3e
       0.44551608 0.35068572 0.5129361 0.37035376
000080 a1 48 d6 3d 5d c1 dd 3e 74 5a 7f 3e 35 32 b9 3e
       0.104630716 0.43311587 0.24936849 0.36171117
000090 44 07 36 3d f1 3d e7 bd 99 df f5 bc 96 c9 03 3b
       0.044440523 -0.11291111 -0.030013846 0.0020109168
0000a0 4f 1c cd 3c 61 0a 77 3c 61 05 f1 bc 1c 9b 27 bd
       0.025037913 0.015078158 -0.02942151 -0.04091941
0000b0 76 ca c8 3d 7f ae e6 bb f4 82 8a bd e1 6c be be
       0.09804241 -0.0070398445 -0.067632586 -0.37192443
0000c0 37 71 7d be 77 b1 89 bd 49 b8 9f bc ac 5a 57 be
       -0.2475022 -0.06723302 -0.019497054 -0.21030682
0000d0 0d de 66 be 25 5e 96 bd 63 53 5b be 47 3f 89 be
       -0.22545643 -0.073421754 -0.21418528 -0.2680609
0000e0 a8 5f dc 3d e7 d6 1c 3d cb c9 32 be 7a 11 a2 bd
       0.107604325 0.038290884 -0.1745979 -0.0791349
0000f0 81 07 77 be 18 9a bc be 77 fa 33 bc aa d3 35 be
       -0.24123956 -0.36836314 -0.010985008 -0.17756525
000100 94 48 ad 3c 22 0a 1c 3d 6a 1c ef bd bb 31 ed 3c
       0.021152772 0.0380956 -0.116753414 0.028954377
000110 e9 7e e2 bd b5 aa a3 3c 50 b6 4e bd 83 c9 dd bd
       -0.110593624 0.01997886 -0.050466835 -0.10829451
000120 23 2c 0b be 6d 40 23 bd f9 ef 04 be c5 9c 15 3d
       -0.13591056 -0.039856363 -0.12982167 0.03652646
000130 c5 e9 4e be 75 d7 04 3e 2a a3 b8 3d 7a 3f 99 3d
       -0.20206363 0.12972815 0.09015496 0.0748281
000140 c4 1c b1 bd 73 c5 31 bf 48 87 b5 be 52 ad 16 bd
       -0.08648065 -0.6944191 -0.35454774 -0.036786385
000150 54 ff 67 be fb 5f a5 3d 5e 72 56 3e 1d c3 5d 3e
       -0.22655994 0.080749474 0.20942065 0.21656461
000160 da 13 52 bc 89 27 15 bc a2 40 13 be 7b 2e 1a 3f
       -0.012822116 -0.009103664 -0.14380124 0.60227174
000170 9b 7a d0 be b4 a5 53 3f dd 1b fc bc c5 46 3f be
       -0.4071854 0.8267472 -0.030775005 -0.1867934
000180 96 74 19 3d c5 eb 11 bc ee e0 17 be dd dd 3e be
       0.0374647 -0.0089063095 -0.14831898 -0.18639322
000190 db d0 c8 bd 5a 2f 86 3e d1 98 30 be 38 ed f8 3d
       -0.09805461 0.26208 -0.17245795 0.12154621
0001a0 e4 2a cd 3c 46 3a 0f be 17 54 35 be ad ba aa 3d
       0.025044866 -0.13987073 -0.17707859 0.08336387
0001b0 dc 56 70 bd 08 85 86 bb 46 c4 b1 3d 43 fa 82 3d
       -0.058676586 -0.004105214 0.08680014 0.0639539
0001c0 95 19 20 3d a6 ed 49 3d 0b 30 cf 3d f4 0e c5 3d
       0.039086897 0.049298905 0.10116585 0.09621993
0001d0 75 b5 9b 3c 5f ff d7 bd 34 1f ad 3e 8e a1 1a 3e
       0.019007424 -0.10546755 0.3381287 0.1510069
0001e0 27 5b 53 3d 09 25 ca bd 5a 1b ac be f1 a2 4c 3e
       0.0516006 -0.09870345 -0.33614618 0.19984032
0001f0 07 07 50 be 42 c2 30 be f6 5b 6b 3e 8b a2 87 be
       -0.2031518 -0.17261603 0.22984299 -0.26491198
000200 e3 5e 3e 3e 36 e7 bb 3d be 35 03 3e 7f e8 cc bd
       0.18590884 0.09174959 0.1281347 -0.100052826
000210 93 5b 19 3f 55 f3 ca 3d 04 a3 f9 3d a7 be 38 be
       0.59905356 0.09909693 0.12189296 -0.18041478
000220 3c a6 d5 be c5 73 1f bc 31 21 26 be fb 06 98 bc
       -0.4172839 -0.009732191 -0.16223599 -0.018558016
000230 08 1e 87 3d 12 d2 df 3d 67 da 08 be c3 6a 9f bd
       0.06597525 0.109287396 -0.13364564 -0.07784035
000240 0f ce 30 3e cc a0 f0 3d a2 f5 1a 3e 2b bd fe bc
       0.17266105 0.117494196 0.15132764 -0.031096062
000250 d6 0c b1 bd 37 13 20 be 5f 18 e1 bd 61 87 8f bd
       -0.086450264 -0.1563233 -0.109909765 -0.07008243
000260 47 11 2f bd 31 73 1f 3e db 54 cb 3d f6 38 14 3e
       -0.042741086 0.15571286 0.09928294 0.14474854
000270 84 97 b8 bd b7 a7 5c be 01 c9 05 3e a4 55 7e be
       -0.09013274 -0.21548353 0.13064958 -0.24837357
000280 4c f9 05 be 21 81 ae bd f4 09 2c 3e 27 4a 81 3e
       -0.1308338 -0.08520723 0.16800672 0.25251886
000290 aa bd 08 bc 45 0d fc 3c 69 ae f4 3d 5c f1 b3 3d
       -0.008346001 0.030768046 0.119473286 0.0878627
0002a0 3d 05 02 be 90 65 32 3e e7 f3 06 3e c5 0a e3 be
       -0.12697311 0.17421556 0.13178979 -0.44344154
0002b0 b5 58 bd be f1 1f dd bd f5 11 3b 3e 75 21 12 3e
       -0.3698174 -0.10797108 0.18268569 0.14270575
0002c0 d5 50 35 3e 61 15 7c be 27 50 be 3c 3d cd b8 bd
       0.17706616 -0.2461753 0.023231579 -0.09023521
0002d0 8a c6 92 bd 5d e0 7a bc ae 59 d8 3c 23 a5 c3 3c
       -0.071667746 -0.015312281 0.02640995 0.023882454
0002e0 7c 22 65 bd cc c0 3e 3d 86 f3 0c 3d ce de 62 bc
       -0.05594109 0.046570584 0.03441193 -0.013847066
0002f0 cb 6b f7 3b ca f3 98 3e 7b 0e 0a 3e 87 27 a5 be
       0.0075506917 0.29873496 0.13482086 -0.3225672
000300 45 41 4e 3b 10 1a 82 bd e3 fb 7f be 81 0d 56 3e
       0.003147201 -0.06352627 -0.24998431 0.20903589
000310 ac 66 ae 3d e1 72 be bd 68 9c 9d bd 0f cb 4a bd
       0.08515677 -0.09299255 -0.07695848 -0.049510058
000320 70 24 12 3e ea ae 2e bd 06 e9 30 be 76 ce 70 be
       0.14271712 -0.04264728 -0.17276391 -0.23516259
000330 51 4e f6 3d f9 f7 75 3e 95 04 2f 3e a4 c3 b3 3c
       0.120266564 0.24020375 0.17091592 0.021943875
000340 84 e1 39 be 90 79 b3 bd 48 24 8b 3e 11 2f b4 3e
       -0.18152434 -0.087634206 0.27176118 0.3519216
000350 e8 13 45 3e d6 1d 53 be 57 eb a4 3b a1 50 ca 3c
       0.19245875 -0.2061685 0.0050329375 0.02469665
000360 5b 3a be 3d 55 7f d4 3d 8e 45 b3 3c b4 9d 15 3f
       0.09288474 0.10375849 0.021883752 0.5844376
000370 8f b1 42 3e 08 99 2b be 52 59 86 3e 34 10 fc 3c
       0.19013046 -0.16757596 0.2624002 0.030769445
000380 5b 1f 11 be c9 a2 ae bd 21 f4 83 bd f2 b0 e9 bd
       -0.14172117 -0.085271426 -0.06443048 -0.11410703
000390 af a2 7e 3e cf 65 11 3e a1 94 82 bc c0 64 7a 3d
       0.24866746 0.14198993 -0.015940012 0.06113124
0003a0 db c8 cd bc 6c 0f ed be 08 c0 4e be 57 44 78 be
       -0.02512019 -0.46300828 -0.20190442 -0.2424482
0003b0 86 cd e4 3c 88 2d 02 3f 5c dc c6 3d c1 a2 c6 3e
       0.027930032 0.50850725 0.09709999 0.38796046
0003c0 ca d3 0a be e8 e4 3c 3e 29 bc b6 be 9a bc 20 3e
       -0.13557354 0.18446696 -0.3569043 0.15696946
0003d0 6a 05 01 3e 91 66 2b be 21 bd 6a 3e fa 8c 17 be
       0.12599722 -0.16738345 0.2292371 -0.14799872
0003e0 5c 48 2e 3e c7 eb 83 3e bb 65 ac bd f5 54 33 bd
       0.1701979 0.2576582 -0.08417841 -0.043782193
0003f0 02 a6 8a bd 95 31 2a 3d a1 e8 ae 3a 16 22 15 3d
       -0.06769945 0.04155119 0.0013344475 0.03640946

conv3.bias f4 [8]
000000 74 68 c8 be 27 42 66 3e 86 cc f4 3d 28 46 1d 3e
       -0.3914219 0.22486173 0.11953072 0.15358794
000010 6b 0e 8b be 7f 3e 17 be 6f 90 8d 3d ff ff 8b be
       -0.27159438 -0.14769934 0.06912314 -0.27343747

conv4.weight f4 [8, 8, 3, 3]
000000 0e bc 3e be 47 be 97 bd 63 de c4 3e 7d e2 09 be
       -0.18626425 -0.074093394 0.38450918 -0.13465305
000010 44 34 1f be e1 e9 17 3f 70 eb 82 be 56 0c a4 be
       -0.15547282 0.59341246 -0.2557025 -0.32040662
000020 c4 00 78 3c 28 0b 14 be 77 6d 93 3c fc 59 b7 3e
       0.015136901 -0.14457381 0.017996533 0.3581084
000030 07 7d 22 be 2b de d3 3e 98 e7 54 3d af 1a ab 3e
       -0.15868007 0.41380438 0.051978678 0.33418795
000040 cb ea e5 3c 72 e3 be 3d 61 75 83 bd 06 2f 3b bd
       0.02806606 0.093207255 -0.064188726 -0.045699142
000050 e3 6b fa 3d e0 5a 45 3e 33 fd 6b 3e 18 bd ba bc
       0.12227609 0.19272947 0.23045807 -0.022795245
000060 08 1c b6 3d d2 17 6c 3d 1f ec ac 3d 8c 96 1a 3c
       0.08892065 0.057639904 0.08443474 0.009435307
000070 b3 f6 9c be aa ff 8a bc f3 41 80 be 38 2b 90 bd
       -0.30656967 -0.016967613 -0.25050315 -0.07039493
000080 39 3d 8d 3e c8 07 14 be c3 37 91 be 3e 00 22 3e
       0.27585772 -0.14456093 -0.28362855 0.15820405
000090 1f 38 58 be f0 d6 03 3f 12 e3 8e be 2a 40 60 3e
       -0.21115158 0.51499844 -0.27907616 0.21899477
0000a0 66 f7 18 3c 1c 41 68 be 48 58 72 be a8 09 c1 3e
       0.009336328 -0.22681087 -0.23666489 0.3770268
0000b0 6c c1 6a be 86 5a 03 3d cc 1d 03 be ff 60 70 bc
       -0.22925347 0.03206875 -0.12804335 -0.014671563
0000c0 70 11 0c 3e 89 e7 5d bd 13 31 99 bd 43 21 51 3e
       0.13678527 -0.054175887 -0.07480063 0.20422845
0000d0 bf 2f bf bc 13 b7 2f be cc 5d 59 bd 6e c7 b0 3d
       -0.023338197 -0.17159681 -0.053067967 0.08631788
0000e0 e0 06 6b 3e 3f fd 99 bc b3 1c 00 bd 80 0e 19 3e
       0.22951841 -0.018797515 -0.03127737 0.14946938
0000f0 5d 1c 15 bd cc 99 87 bd ab 45 d1 bd 4d 1d 81 3d
       -0.036404002 -0.06621131 -0.10218366 0.06304417
000100 de 6d 08 be 2b ea 9e bd d9 0c 7b 3e 36 53 1a 3d
       -0.13323161 -0.07759508 0.2451662 0.037677012
000110 ae 9d 89 3d 7b 3c 9f 3e 24 b9 38 bb 87 b9 66 3e
       0.06719528 0.3110083 -0.0028186524 0.2253171
000120 e2 3b 92 3e 9d 78 af 3e 50 ba a8 3d 03 9d 1a 3e
       0.28561312 0.34271708 0.08238661 0.15098958
000130 7e 6c bc 3e 13 eb 96 be 04 b3 b2 3d e6 16 3f 3e
       0.36801523 -0.29476222 0.08725551 0.18661079
000140 31 f1 04 3f ab b5 88 be 77 7b cf be ad 26 85 bb
       0.5193053 -0.26701102 -0.40523884 -0.0040634484
000150 80 d4 02 be 8a a5 73 be 10 9f c7 3e 87 ab 08 bf
       -0.12776375 -0.23793617 0.38988543 -0.5338673
000160 d8 e7 05 3f 44 82 e0 3b 71 17 0a 3d ce 7a d7 bd
       0.5230689 0.0068514664 0.03371376 -0.1052147
000170 1c 04 87 be 0d bd 34 3e 85 01 2c 3e 69 6c 2b bd
       -0.26370323 0.17650242 0.16797455 -0.041851435
000180 94 1e a6 bc c3 3e 53 3d 4b 77 e3 bd 93 cf c3 be
       -0.020278253 0.051573526 -0.11106738 -0.38244304
000190 c4 ec 81 3e 90 ff 1f be 4e 2c bd 3e 88 d7 cd 3d
       0.2537595 -0.15624833 0.36947864 0.10050875
0001a0 d2 49 e2 3c be ae df bc e6 65 66 3d d6 60 a0 3c
       0.02762309 -0.027305003 0.05624952 0.019577425
0001b0 e9 06 d2 be 12 e7 d9 3e 9b 62 07 bd 8f ce 85 be
       -0.41020897 0.42559105 -0.033053022 -0.26134154
0001c0 58 d0 eb 3b 33 81 9c 3e 4c 38 26 bc 86 e6 6a be
       0.0071964674 0.3056732 -0.010145258 -0.229395
0001d0 62 4e 47 bd 49 da 8e bd 0d 66 7c bd 4e b9 58 bd
       -0.048658736 -0.06975228 -0.06162076 -0.052911095
0001e0 48 76 07 bd cb af cb 3d 62 60 72 bd da b4 1c 3d
       -0.033071786 0.09945639 -0.05917395 0.03825841
0001f0 ca 5c 97 3d 54 0c fb bd a8 7e c3 3c 32 fc c5 bd
       0.07390745 -0.12258211 0.023864105 -0.09667243
000200 32 51 31 be b0 b8 6d bd 99 db a0 3e 73 9e 8e 3d
       -0.1731613 -0.05803746 0.3141754 0.069638155
000210 f3 d6 ca bd a4 2c 31 3e 70 56 4c be 55 ce 9c 3e
       -0.099042796 0.17302185 -0.19954848 0.3062617
000220 0e f4 6c 3d b2 00 3a 3e 62 d2 01 bf 47 f1 e3 be
       0.057849936 0.18164328 -0.50711644 -0.44520018
000230 94 3f b9 bd 0b 13 20 be 12 3a 82 be f8 b3 2a 3e
       -0.0904533 -0.15632264 -0.2543493 0.16670215
000240 aa b2 d7 3e 57 ca 9c 3e a3 c6 de 3e 90 fc 8f 3e
       0.42128497 0.30623123 0.43510923 0.28122377
000250 d1 30 dc bd c3 e7 dc bd 0f 77 df 3d 21 08 31 be
       -0.107514985 -0.107863925 0.109113805 -0.17288257
000260 42 73 41 bf aa a6 e9 bd 6d 1c 16 bf 7f d3 87 3e
       -0.75566494 -0.11408742 -0.58637124 0.26528546
000270 da 55 b9 bb 89 96 08 3e 7c 54 db 3e f5 9b 66 be
       -0.0056559863 0.13338675 0.42837894 -0.2252043
000280 b1 3e 83 3d ec a9 87 3e 35 99 1b 3e 35 64 db 3d
       0.06408442 0.26496828 0.15195163 0.10712472
000290 ed 22 f8 bd 38 df 97 3c 11 09 80 3c 1a a3 d8 bb
       -0.121160366 0.018539056 0.015629323 -0.00661124
0002a0 91 49 5f bc 07 50 d8 3d 05 93 81 bc d5 82 7a 3e
       -0.013628379 0.10562139 -0.015817175 0.24463971
0002b0 35 0a be 3d 85 36 c0 be 91 75 a0 bd 8a be b8 be
       0.092792906 -0.37541595 -0.07834924 -0.3608287
0002c0 54 d2 9f be 66 d1 fb 3d 52 8f bc bb 54 e1 52 3d
       -0.31215155 0.12295799 -0.00575439 0.05148442
0002d0 18 17 ed be fc b0 47 be 9d 66 71 3e 32 44 ba bd
       -0.46306682 -0.19501108 0.235743 -0.090950385
0002e0 88 a2 25 3d 64 44 3c be 64 f3 43 be 0e 23 f7 3d
       0.040438205 -0.18385464 -0.19135815 0.12067233
0002f0 04 5c 5e be 2e df 7d 3b ea e1 81 3b 94 f9 90 bd
       -0.21714789 0.0038737762 0.0039636986 -0.07078853
000300 f5 64 58 ba db f3 14 3e 50 5c ac 3d 71 a2 1c 3e
       -0.000825479 0.14546148 0.08416045 0.15296341
000310 ba 42 e7 3d fa 73 04 3e 0b ce 9d 3e 61 99 91 be
       0.11292024 0.12934867 0.3082126 -0.2843733
000320 20 67 a1 be 74 cc c8 3d b4 bd 7a be ef 59 b5 3c
       -0.3152399 0.09804621 -0.24486428 0.02213761
000330 9f 99 50 3e 05 48 b4 3d ef 55 1d be e0 1d cb bb
       0.20371102 0.08802799 -0.15364812 -0.0061986297
000340 3a 42 d0 3e ec ad 86 3e 8e 6d 13 bf a6 43 4e 3e
       0.40675527 0.26304567 -0.5758904 0.20142993
000350 d4 dd c4 be 07 6d 45 be e3 63 8f 3e 40 89 93 be
       -0.3845049 -0.19279872 0.28005895 -0.2881565
000360 c1 eb 3b bf 83 e3 98 3e 81 f7 92 3e 77 f2 5b 3e
       -0.73406607 0.29861078 0.28704455 0.21479212
000370 c6 29 e0 bd 01 ce 05 3e cc 75 ab 3e 37 95 4e 3c
       -0.10945468 0.13066866 0.3348831 0.012608818
000380 21 52 03 be e3 cc f9 be 04 ba 36 3d e0 e5 1e 3e
       -0.12824298 -0.4878913 0.044610992 0.15517378
000390 05 e1 e4 bd 84 f8 8d be 92 f6 64 be 53 31 b1 be
       -0.111757316 -0.27728665 -0.22359684 -0.34607944
0003a0 96 1a 86 be 00 47 80 be ff 65 15 3d cb db cf be
       -0.26192158 -0.2505417 0.036474224 -0.40597376
0003b0 45 4f 68 be 4b 5c 05 be 09 07 ef bc 1a ad 7f be
       -0.22686489 -0.13023488 -0.02917816 -0.24968377
0003c0 98 65 6a be 88 a9 f8 3a 29 3d 18 be f1 7a 4a bf
       -0.22890317 0.0018971423 -0.14867081 -0.79093844
0003d0 24 51 7e be b3 ec a0 be ba b7 99 be bc 31 05 3e
       -0.2483564 -0.31430587 -0.30022985 0.13007253
0003e0 26 f7 ee bd d4 41 81 bd 84 e9 b3 be 93 09 36 bf
       -0.116682336 -0.06311384 -0.35139096 -0.7110836
0003f0 d8 2b 16 3f 22 28 af 3e de 92 52 3e 9f 33 41 3e
       0.5866065 0.34210306 0.20563838 0.18867348

conv4.bias f4 [8]
000000 18 46 55 3e 67 5d 74 bd 34 89 bb bd bf 06 12 bf
       0.2082752 -0.059659388 -0.09157029 -0.57041544
000010 c1 0c 8d bd e5 0c cf be a1 9e 02 3d 3f 08 31 3e
       -0.06887198 -0.40439525 0.03188956 0.17288302

conv5.weight f4 [2, 8, 3, 3]
000000 00 b5 b3 3b 72 ef 85 be d0 6f 47 3e 29 b5 7c be
       0.0054842234 -0.26159245 0.19476247 -0.24678482
000010 d2 2f ba bd e2 33 f7 bd 38 c9 37 be 99 5e 73 be
       -0.09091152 -0.12070443 -0.17947853 -0.23766555
000020 16 64 76 3d 4b e2 8a 3e 79 24 74 bc 0d 64 00 3d
       0.060154043 0.27125773 -0.014901274 0.031345416
000030 56 95 ae 3d b3 ab 15 be 07 a8 c2 bd 8a 12 cd bd
       0.08524577 -0.1461628 -0.09504705 -0.10013302
000040 54 df ad bd ed 16 62 be 14 8c d1 3d 61 e3 da 3e
       -0.08489862 -0.22079058 0.10231796 0.427516
000050 02 8a 37 3e 1f 5c a9 be 73 08 90 3e 5c 13 de be
       0.1792374 -0.33078095 0.28131446 -0.43374145
000060 74 18 e5 3d fa a3 64 3e 79 96 2d be ae a6 59 be
       0.11186305 0.22328177 -0.16951932 -0.2125499
000070 f5 24 a3 3e cb 44 9b be 76 7d 78 be 4d fa 6b be
       0.31864133 -0.30325922 -0.2426661 -0.23044701
000080 55 d4 68 be f9 fb d2 3d 32 15 5d bd c8 37 90 be
       -0.22737248 0.10301966 -0.05397529 -0.28167558
000090 a1 d5 9d 3e 8c c0 b4 3e 1d db 5a 3e 17 eb 41 bb
       0.30827048 0.35303152 0.21372648 -0.0029589587
0000a0 5d 9d 89 bd a8 31 86 be 58 3c 84 3c 9e b7 53 bd
       -0.06719468 -0.2620976 0.016142055 -0.051688783
0000b0 6f 90 f0 be 47 e0 3d 3f 53 ee 3c bd 18 c8 4e bf
       -0.46985194 0.74170345 -0.04612572 -0.8077407
0000c0 34 82 16 3f d7 cb 18 be 2c 51 16 3e 02 cb 03 3f
       0.58792424 -0.14921509 0.14679402 0.5148164
0000d0 5c 1f ce 3d 67 c3 ad 3e f1 0d f0 be a3 df 19 be
       0.10064575 0.33938143 -0.46885636 -0.15026717
0000e0 9a b1 83 3e 3b 27 05 bf 24 cc 08 3f 9d 0f 99 3c
       0.25721437 -0.52012986 0.53436494 0.018684203
0000f0 fc bb ad 3e c3 e3 85 3e 71 54 7a 3c c5 88 ef bd
       0.33932483 0.2615033 0.015278921 -0.116960086
000100 15 7f 23 3d d8 4a 41 be 13 aa f1 3c 20 86 f2 bd
       0.039916117 -0.18876207 0.029500043 -0.118419886
000110 ed 03 59 bd 2e ac 85 bd 67 47 bc bd b1 c0 a8 be
       -0.05298226 -0.06526981 -0.091933064 -0.32959512
000120 a8 c4 d0 3c 3b 3e 28 bd 19 50 2f 3e e6 2b a7 3c
       0.025484398 -0.041074973 0.17120399 0.020406675
000130 93 ea f9 bd 43 10 5d 3e 00 43 a5 be 2a 79 94 3e
       -0.122029446 0.21588235 -0.3227768 0.2899869
000140 cd 16 60 3d d2 44 1f bd 70 19 7d bd 5e 5b bc 3d
       0.054709245 -0.03888399 -0.061791837 0.091971144
000150 81 eb 05 3d 25 e8 07 3f ca 95 a8 3c b5 04 e7 3e
       0.032695297 0.530886 0.020579237 0.4512078
000160 b0 0f 9b 3e 05 b0 7d be 66 38 0e bd b0 6c e1 3d
       0.30285406 -0.24774177 -0.034721754 0.110070586
000170 07 a5 ca 3d 8b 22 a1 be aa 6d f9 3d 2c 32 2b be
       0.09894758 -0.31471667 0.1217912 -0.16718358
000180 1f 11 37 bc 93 44 f5 3c 12 36 fa be 93 83 cb 3e
       -0.011173516 0.029939925 -0.48869377 0.3974882
000190 b0 17 02 3f 9a 53 17 bf 27 7e 17 bf 1a fa c6 3e
       0.50817394 -0.5911194 -0.5917687 0.38862687
0001a0 d1 ad 51 3f b6 b5 51 3f a5 2a 1f bf e0 97 27 3f
       0.8190585 0.81917894 -0.62174445 0.6546612
0001b0 02 a2 8a 3d 86 59 0c be 96 7e 95 bd 1c 1f 0a bc
       0.06769182 -0.13706025 -0.07299535 -0.008430269
0001c0 e4 de d6 3e c6 3d 63 3e 61 f9 53 3d 89 07 2d be
       0.41966927 0.22191533 0.051751498 -0.16897406
0001d0 ef c9 6c bd bf 33 97 3e 5c b0 78 3d ee 31 c7 3e
       -0.057809766 0.29531667 0.060715064 0.3890528
0001e0 22 20 ca 3e 89 34 c8 be cf 0d bc 3d b6 0b c1 3e
       0.3947764 -0.3910258 0.09182321 0.37704247
0001f0 70 50 34 3d 1f 35 c5 3d 58 e7 0a be da 9b 9a bc
       0.044022024 0.09629273 -0.13564813 -0.018873144
000200 48 74 ba be 12 2a f0 bc 35 e6 ce be 5b ea 41 3e
       -0.3641684 -0.029316936 -0.4041001 0.18937056
000210 ab a6 f1 3d 01 a9 54 3f 79 e5 93 be e4 d3 a3 bb
       0.117993675 0.8307038 -0.2888601 -0.0049996246
000220 10 79 35 3e 5e 45 54 be 0c 71 77 bc 04 03 b2 3e
       0.17721963 -0.20729586 -0.015102636 0.34767926
000230 38 f2 ec bb ec 8d 1b 3e 5e a6 7e bd 55 d6 40 3d
       -0.007231023 0.15190858 -0.06217038 0.047079403

conv5.bias f4 [2]
000000 12 28 83 be 24 b2 8d 3d
       -0.2561651 0.06918743

fc.weight f4 [81, 162]
000000 d4 58 99 3c 40 df d2 bd 42 00 dd bd 56 cd 37 be
       0.018719114 -0.10296488 -0.10791065 -0.17949423
000010 b5 82 96 bf 70 8a 80 be d5 5a af bd bc 44 1b bf
       -1.1758639 -0.2510562 -0.08562247 -0.60651755
000020 d4 85 1b bd 07 df 6d 3e b9 22 98 3e 54 a0 28 be
       -0.037969425 0.2322961 0.2971399 -0.1646741
000030 fd cd 11 3e 48 24 49 3e ff 68 c9 bd 8e 08 73 bf
       0.14238735 0.19642746 -0.098344795 -0.9493493
000040 59 d3 00 bf cf 7f 30 be 1f 3d a2 bf ac d8 7c be
       -0.5032249 -0.17236255 -1.2674903 -0.24692029
000050 96 7f 8f bf a8 eb 42 be d4 0a e8 3b 8e 6a 97 3c
       -1.1210811 -0.19035208 0.007081369 0.018483426
000060 41 09 69 bf 3f c7 2f 3d 74 6a c3 3d 83 48 71 be
       -0.91029745 0.042914625 0.09541789 -0.23562817
000070 28 9b 9a 3d fd 0c 03 bf b8 8c 43 be 07 82 fa be
       0.07549125 -0.51191694 -0.19096649 -0.48927328
000080 81 9d 70 be 51 c3 aa bc a5 ab 00 be 0c 2f f0 bb
       -0.23497583 -0.020845087 -0.12565477 -0.007329827
000090 4b 9a 00 c0 06 56 66 3d 83 23 e8 bd 11 c8 c8 be
       -2.0094173 0.056234382 -0.11334898 -0.3921514
0000a0 92 36 27 bf 35 41 22 be af de 43 be 79 f1 c2 3c
       -0.6531764 -0.15845187 -0.19127916 0.023796784
0000b0 cd ff 8b be 60 08 78 bf 2f 80 e6 bd ef e7 4a be
       -0.27343598 -0.9688778 -0.11254918 -0.19815038
0000c0 c9 4a 88 be 0c b4 12 3e 72 cb be be a7 97 f9 be
       -0.26619557 0.14326495 -0.3726459 -0.48748514
0000d0 2c ee 5a be cc ad 39 3d 17 3c 8b 3d 09 cc 88 be
       -0.21379918 0.04533176 0.067985706 -0.26718166
0000e0 67 2e 09 bf 72 2a 98 be 4c 9d dd be a2 b7 23 bb
       -0.5358643 -0.29719883 -0.4328407 -0.002498128
0000f0 8f ba 32 3e 4f aa c6 be 1e af ed 3c cd ac fa bf
       0.17453979 -0.3880181 0.029014166 -1.9583985
000100 45 ec 49 bf c1 77 23 be 5a 8b a8 3d 51 55 bc bd
       -0.78876144 -0.15963651 0.08229704 -0.0919596
000110 88 8b a3 bc 4e e2 20 be 0c 22 f7 3d 2f 06 cc 3d
       -0.019963995 -0.15711328 0.12067041 0.09962117
000120 07 68 a3 bd bc 9d e1 3d ca c3 ee 3c f9 4c e8 3c
       -0.07978826 0.110164136 0.029146094 0.028357016
000130 b0 5b 73 bd f9 62 9a be ff 1c 3e 3e 3d 93 eb 3d
       -0.059413612 -0.30153635 0.18565749 0.11502693
000140 02 c2 8a bd b8 e2 66 3e 32 31 03 3e 68 3d 42 3e
       -0.06775285 0.22547424 0.12811735 0.18968737
000150 3a d6 f9 bd 72 a1 f0 3c 31 32 a9 bd ad 73 34 bd
       -0.121990636 0.029373858 -0.082615264 -0.04405563
000160 a7 75 93 bd 74 06 ca 3d 4c 2f 2e 3e 52 88 6d 3e
       -0.07200175 0.09864512 0.1701023 0.23196533
000170 c5 b8 8e bd 00 70 19 3e 98 5d 1c 3e 35 d6 92 bb
       -0.06968836 0.14984131 0.15270078 -0.004481102
000180 63 06 86 3c d9 ca 08 3e 31 b7 da 3d 32 a6 c2 bc
       0.016360467 0.1335863 0.10679472 -0.023760889
000190 a6 58 95 3e 6b 9e 4d 3e ad e1 20 3d 33 d7 33 3d
       0.29169196 0.20079963 0.03927772 0.0439064
0001a0 10 cd 37 3e 7d 38 ad 3d 2e e7 85 3e f4 1e d9 3d
       0.17949319 0.0845804 0.2615294 0.10601607
0001b0 93 99 c6 3d cf d0 06 3e c7 74 31 3e ca e7 22 3e
       0.09697261 0.13165592 0.17329703 0.15908733
0001c0 84 8c 1f 3e ca b2 4e 3d 4c 54 8d 3d 3c 86 51 3c
       0.15580946 0.050463475 0.06900844 0.012788352
0001d0 e2 e8 92 bd d5 73 45 be 19 91 47 3d 32 22 c6 bd
       -0.07173325 -0.19282468 0.04872236 -0.09674491
0001e0 27 d8 c1 3d 75 07 c3 bd 8e 63 1d 3d ab 21 03 bc
       0.09465056 -0.09522907 0.03842502 -0.008003633
0001f0 94 2b b7 3d 24 a7 46 3d 68 f2 04 3e f2 fb 06 3d
       0.08943859 0.04849924 0.12983096 0.032955118
000200 a1 5e db 3d 06 96 82 3c 12 f1 65 3c 2f 62 f4 3d
       0.107114084 0.015940677 0.014034526 0.119327895
000210 f6 da 1b 3d a7 d1 c7 3b 26 06 53 3c 6c 3f b1 bd
       0.038050614 0.0060979906 0.012879884 -0.08654675
000220 a0 24 b0 3d a9 55 0d 3e 54 65 6c 3e 7e dc ba ba
       0.08600736 0.13802208 0.23085529 -0.0014256386
000230 03 ba 6f bd de 66 4b 3d 18 da c5 3d 68 ee 21 3d
       -0.058527004 0.04965865 0.09660739 0.039534003
000240 89 cd 9a bd 00 f5 2d bd e5 53 b1 3b 53 87 3d 3e
       -0.07558734 -0.04246998 0.0054116123 0.18508653
000250 8b 61 c5 3d e5 1b 5e 3d 65 db 1f 3d 6d ca 04 bc
       0.096377455 0.05422582 0.03902759 -0.008104903
000260 88 14 d7 bd ee 1a ad 3e 0f 69 27 3b 9a ee 36 3d
       -0.10501963 0.33809608 0.0025544798 0.044661142
000270 6f 85 03 3e 18 98 81 3e c2 5f 92 3e 26 73 fe 3d
       0.1284387 0.2531135 0.28588682 0.124243066
000280 d6 57 13 3d c8 98 8b bd 4d 4f 34 3d 5d 7e 10 bf
       0.03597244 -0.0681625 0.04402094 -0.56442815
000290 86 ee 5f bd 9d e4 ef bd b2 1b 6b bf 31 d3 84 bf
       -0.054670833 -0.117135264 -0.91839135 -1.037695
0002a0 4a 9c 1e bf 05 55 ae bd 18 96 4c bf 4f 27 2e bc
       -0.6195723 -0.0851231 -0.79916525 -0.010629489
0002b0 62 5e 47 3e 35 48 e0 3e d9 48 8a 3e 6c 84 a9 3e
       0.19469598 0.4380509 0.27008703 0.33108842
0002c0 af c5 89 be 27 02 3b bf fa 46 91 bf a2 c7 dc be
       -0.26908633 -0.7305016 -1.1349785 -0.43121058
0002d0 92 d5 c7 bf 4c 19 f7 be 28 a0 1c bd 7c 2a 92 be
       -1.5612051 -0.48261487 -0.038238674 -0.28548038
0002e0 6e 2b 2b bf 1f c4 0b be 27 b5 df bd 4c 75 f5 be
       -0.66863143 -0.13649033 -0.10923224 -0.47941053
0002f0 71 0d 81 3d 20 22 0f bf 3d e7 d6 be a1 13 29 3e
       0.06301392 -0.55911446 -0.41973296 0.16511394
000300 a2 5a 66 be 48 f6 aa be 88 f9 08 be 74 0e ba bd
       -0.22495511 -0.33391023 -0.13376439 -0.09084788
000310 6f 30 98 bd c4 8b d6 bd fb 5e 18 be 0f 7f 00 3d
       -0.07431113 -0.10475877 -0.14879982 0.031371173
000320 37 bf d6 bc a3 fc 05 be 8d ff b0 bd 35 2d 1a be
       -0.026214225 -0.13084655 -0.086424924 -0.15056308
000330 b6 42 55 bd 91 f2 08 bf 8d 6f b5 be 72 94 2b bf
       -0.052065574 -0.53495127 -0.3543667 -0.67023385
000340 03 41 86 bc 65 ed 58 bd 68 8a 86 3b 7a 1d bf bc
       -0.016388422 -0.052960772 0.004105855 -0.023329485
000350 59 25 4a bd a8 47 07 bf 2e e2 af be e9 b4 81 be
       -0.049352024 -0.52843714 -0.3435225 -0.25333336
000360 fe 0c 73 bf c4 b1 e0 bd 1c b7 19 bd b1 30 3e 3e
       -0.949417 -0.10971406 -0.037528142 0.18573262
000370 51 7d 57 be 52 7a 22 be a1 6f cb bc 50 9e 67 3e
       -0.21043898 -0.15866974 -0.024833502 0.22618985
000380 f4 68 f1 3b e3 38 c3 bf b3 e1 6b be e8 29 ce be
       0.0073672477 -1.5251735 -0.23035316 -0.40266347
000390 a6 da c8 be d5 2e 6b bd 4b 4a c1 bd 94 28 04 be
       -0.39229316 -0.05741771 -0.094379984 -0.12906104
0003a0 45 d7 85 3d 1c 9e 6c 3d 4e e5 96 3e 6a a0 50 3d
       0.065352 0.057767972 0.2947182 0.050934233
0003b0 54 11 03 3e 2a e2 55 bd 89 d9 b1 3d 5f 77 73 3e
       0.12799579 -0.05221764 0.0868407 0.23776005
0003c0 45 8c 82 bf e2 72 c9 3c 9e 45 86 bd 27 52 4b 3e
       -1.0199057 0.024590913 -0.06556247 0.19855557
0003d0 70 49 6b 3e 82 c7 36 3e eb a0 15 3d 0f 59 42 3d
       0.22977233 0.17849544 0.036530416 0.047448214
0003e0 55 54 60 3d 22 6a 0e 3e 8f 9d 0b be 9e f2 d3 3d
       0.054767925 0.13907674 -0.13634323 0.1034901
0003f0 ed 8b 4b 3c 66 72 24 3e 05 0d 69 3e a1 8a dd bd
       0.012423498 0.16059265 0.22758873 -0.10817457

fc.bias f4 [81]
000000 98 c6 6d bd 18 ce d1 bc ba 04 9d bd ae b5 f4 3d
       -0.058050722 -0.025610968 -0.07666917 0.11948715
000010 97 9a 23 3e 2c 00 e8 bb 1f 00 1a 3d b6 54 ea 3b
       0.1597694 -0.0070800986 0.03759777 0.0071512116
000020 c7 e5 37 bd 95 c2 ad bd bb 37 8b bd 7d c3 c1 3a
       -0.044896867 -0.08484379 -0.06797739 0.0014782991
000030 21 7d 8b 3d 26 59 cf 3d 75 aa cc 3d 64 90 0d bb
       0.06810976 0.101244256 0.099934496 -0.0021600956
000040 33 63 70 3d 7f 89 08 bd 7b 12 5b 3d 35 e0 1b bc
       0.058688354 -0.03333425 0.05348442 -0.009513904
000050 b5 3c c5 3d bb be ee 3d eb 5f 94 3e e2 db 9c 3d
       0.096307196 0.11657473 0.2897943 0.07659127
000060 83 b6 25 3e 98 f1 d9 bc f3 5b 1b bd c3 5f a8 3d
       0.16182904 -0.026604459 -0.037929486 0.0822139
000070 07 5a 96 bc 5b b2 d4 3d 2c 63 32 3e 9f 36 9d 3e
       -0.018353475 0.10385581 0.17420644 0.30705735
000080 ff 0c 55 3e 1b 0b e0 3d 39 04 1b 3d 59 cb df bd
       0.20805739 0.10939618 0.037845824 -0.10927457
000090 8a a4 c7 3d 8c 07 47 3e b5 97 33 3e 9a a4 68 3e
       0.0974818 0.19436473 0.1753834 0.2271904
0000a0 2a f5 b9 3e f1 27 b0 3e 44 c1 5c 3e 00 fa c2 3d
       0.36319858 0.34405473 0.215581 0.0952034
0000b0 f1 4d 02 3e 52 b2 9f bc ed 8e 00 3e e4 19 c1 3d
       0.12725045 -0.01949421 0.12554522 0.09428766
0000c0 60 df 52 3e 16 b0 68 3e fa 45 55 3e 20 a8 15 3e
       0.20593023 0.22723421 0.20827475 0.14614916
0000d0 48 29 28 3d 34 83 d9 bc 39 7a da 3b a8 bb 69 3d
       0.041054994 -0.02655182 0.006667402 0.05706373
0000e0 54 3a 81 3d 12 ad d3 3d bc 7d 2c 3e df a3 0c 3e
       0.06309953 0.10335745 0.16844839 0.13734387
0000f0 75 72 87 3d 58 9e 7e bc b0 2e 2d 3d 35 f4 f9 bd
       0.06613628 -0.015540682 0.042280853 -0.12204782
000100 13 f3 ee 3c d4 15 2d 3d e2 10 86 3d b7 26 17 3e
       0.029168641 0.042257145 0.06546189 0.14760862
000110 20 2b 17 3e 36 ef 6d 3d 55 6a a2 bd be 7b 74 bd
       0.14762545 0.058089457 -0.079304375 -0.059688322
000120 51 ca 9f bd 88 4b d2 bc ef 41 57 bc bb 7e 87 bd
       -0.07802261 -0.025670782 -0.013138278 -0.06615969
000130 7c c3 4c bd 74 a8 0b be 0f 34 b6 bd a1 9d 2f bd
       -0.049991116 -0.13638479 -0.08896648 -0.042874936
000140 c4 52 04 be
       -0.12922198
